{
  "layers" : [
    {
      "pad_r" : 1,
      "fused_relu" : 0,
      "fused_tanh" : 0,
      "debug_info" : "Conv_0",
      "pad_fill_mode" : 0,
      "pad_b" : 1,
      "pad_l" : 1,
      "top" : "206",
      "blob_weights" : 3,
      "K" : 3,
      "blob_biases" : 1,
      "stride_x" : 2,
      "name" : "Conv_0",
      "has_batch_norm" : 0,
      "type" : "convolution",
      "n_groups" : 1,
      "pad_t" : 1,
      "stride_y" : 2,
      "has_biases" : 1,
      "C" : 16,
      "bottom" : "input_1",
      "weights" : {

      },
      "Nx" : 3,
      "pad_mode" : 0,
      "pad_value" : 0,
      "Ny" : 3,
      "n_parallel" : 1
    },
    {
      "alpha" : 0.1666666716337204,
      "bottom" : "206",
      "weights" : {

      },
      "mode" : 6,
      "debug_info" : "Clip_1_scale_0_1",
      "top" : "206_scale_0_1",
      "type" : "activation",
      "name" : "Clip_1_scale_0_1",
      "beta" : 0
    },
    {
      "bottom" : "206_scale_0_1",
      "weights" : {

      },
      "mode" : 7,
      "debug_info" : "Clip_1_clip_0_1",
      "top" : "206_clip_0_1",
      "type" : "activation",
      "name" : "Clip_1_clip_0_1",
      "beta" : 0
    },
    {
      "alpha" : 6,
      "bottom" : "206_clip_0_1",
      "weights" : {

      },
      "mode" : 6,
      "debug_info" : "Clip_1",
      "top" : "207",
      "type" : "activation",
      "name" : "Clip_1",
      "beta" : 0
    },
    {
      "pad_r" : 1,
      "fused_relu" : 0,
      "fused_tanh" : 0,
      "debug_info" : "Conv_2",
      "pad_fill_mode" : 0,
      "pad_b" : 1,
      "pad_l" : 1,
      "top" : "208",
      "blob_weights" : 7,
      "K" : 16,
      "blob_biases" : 5,
      "name" : "Conv_2",
      "has_batch_norm" : 0,
      "type" : "convolution",
      "n_groups" : 1,
      "pad_t" : 1,
      "has_biases" : 1,
      "C" : 16,
      "bottom" : "207",
      "weights" : {

      },
      "Nx" : 3,
      "pad_mode" : 0,
      "pad_value" : 0,
      "Ny" : 3,
      "n_parallel" : 1
    },
    {
      "alpha" : 0.1666666716337204,
      "bottom" : "208",
      "weights" : {

      },
      "mode" : 6,
      "debug_info" : "Clip_3_scale_0_1",
      "top" : "208_scale_0_1",
      "type" : "activation",
      "name" : "Clip_3_scale_0_1",
      "beta" : 0
    },
    {
      "bottom" : "208_scale_0_1",
      "weights" : {

      },
      "mode" : 7,
      "debug_info" : "Clip_3_clip_0_1",
      "top" : "208_clip_0_1",
      "type" : "activation",
      "name" : "Clip_3_clip_0_1",
      "beta" : 0
    },
    {
      "alpha" : 6,
      "bottom" : "208_clip_0_1",
      "weights" : {

      },
      "mode" : 6,
      "debug_info" : "Clip_3",
      "top" : "209",
      "type" : "activation",
      "name" : "Clip_3",
      "beta" : 0
    },
    {
      "pad_r" : 0,
      "fused_relu" : 0,
      "fused_tanh" : 0,
      "debug_info" : "Conv_4",
      "pad_fill_mode" : 0,
      "pad_b" : 0,
      "pad_l" : 0,
      "top" : "334",
      "blob_weights" : 11,
      "K" : 16,
      "blob_biases" : 9,
      "name" : "Conv_4",
      "has_batch_norm" : 0,
      "type" : "convolution",
      "n_groups" : 1,
      "pad_t" : 0,
      "has_biases" : 1,
      "C" : 32,
      "bottom" : "209",
      "weights" : {

      },
      "Nx" : 1,
      "pad_mode" : 0,
      "pad_value" : 0,
      "Ny" : 1,
      "n_parallel" : 1
    },
    {
      "alpha" : 0.1666666716337204,
      "bottom" : "334",
      "weights" : {

      },
      "mode" : 6,
      "debug_info" : "Clip_5_scale_0_1",
      "top" : "334_scale_0_1",
      "type" : "activation",
      "name" : "Clip_5_scale_0_1",
      "beta" : 0
    },
    {
      "bottom" : "334_scale_0_1",
      "weights" : {

      },
      "mode" : 7,
      "debug_info" : "Clip_5_clip_0_1",
      "top" : "334_clip_0_1",
      "type" : "activation",
      "name" : "Clip_5_clip_0_1",
      "beta" : 0
    },
    {
      "alpha" : 6,
      "bottom" : "334_clip_0_1",
      "weights" : {

      },
      "mode" : 6,
      "debug_info" : "Clip_5",
      "top" : "212",
      "type" : "activation",
      "name" : "Clip_5",
      "beta" : 0
    },
    {
      "pad_r" : 1,
      "fused_relu" : 0,
      "fused_tanh" : 0,
      "debug_info" : "Conv_6",
      "pad_fill_mode" : 0,
      "pad_b" : 1,
      "pad_l" : 1,
      "top" : "213",
      "blob_weights" : 15,
      "K" : 32,
      "blob_biases" : 13,
      "stride_x" : 2,
      "name" : "Conv_6",
      "has_batch_norm" : 0,
      "type" : "convolution",
      "n_groups" : 32,
      "pad_t" : 1,
      "stride_y" : 2,
      "has_biases" : 1,
      "C" : 32,
      "bottom" : "212",
      "weights" : {

      },
      "Nx" : 3,
      "pad_mode" : 0,
      "pad_value" : 0,
      "Ny" : 3,
      "n_parallel" : 1
    },
    {
      "alpha" : 0.1666666716337204,
      "bottom" : "213",
      "weights" : {

      },
      "mode" : 6,
      "debug_info" : "Clip_7_scale_0_1",
      "top" : "213_scale_0_1",
      "type" : "activation",
      "name" : "Clip_7_scale_0_1",
      "beta" : 0
    },
    {
      "bottom" : "213_scale_0_1",
      "weights" : {

      },
      "mode" : 7,
      "debug_info" : "Clip_7_clip_0_1",
      "top" : "213_clip_0_1",
      "type" : "activation",
      "name" : "Clip_7_clip_0_1",
      "beta" : 0
    },
    {
      "alpha" : 6,
      "bottom" : "213_clip_0_1",
      "weights" : {

      },
      "mode" : 6,
      "debug_info" : "Clip_7",
      "top" : "214",
      "type" : "activation",
      "name" : "Clip_7",
      "beta" : 0
    },
    {
      "pad_r" : 0,
      "fused_relu" : 0,
      "fused_tanh" : 0,
      "debug_info" : "Conv_8",
      "pad_fill_mode" : 0,
      "pad_b" : 0,
      "pad_l" : 0,
      "top" : "337",
      "blob_weights" : 19,
      "K" : 32,
      "blob_biases" : 17,
      "name" : "Conv_8",
      "has_batch_norm" : 0,
      "type" : "convolution",
      "n_groups" : 1,
      "pad_t" : 0,
      "has_biases" : 1,
      "C" : 16,
      "bottom" : "214",
      "weights" : {

      },
      "Nx" : 1,
      "pad_mode" : 0,
      "pad_value" : 0,
      "Ny" : 1,
      "n_parallel" : 1
    },
    {
      "pad_r" : 0,
      "fused_relu" : 0,
      "fused_tanh" : 0,
      "debug_info" : "Conv_9",
      "pad_fill_mode" : 0,
      "pad_b" : 0,
      "pad_l" : 0,
      "top" : "340",
      "blob_weights" : 23,
      "K" : 16,
      "blob_biases" : 21,
      "name" : "Conv_9",
      "has_batch_norm" : 0,
      "type" : "convolution",
      "n_groups" : 1,
      "pad_t" : 0,
      "has_biases" : 1,
      "C" : 32,
      "bottom" : "337",
      "weights" : {

      },
      "Nx" : 1,
      "pad_mode" : 0,
      "pad_value" : 0,
      "Ny" : 1,
      "n_parallel" : 1
    },
    {
      "alpha" : 0.1666666716337204,
      "bottom" : "340",
      "weights" : {

      },
      "mode" : 6,
      "debug_info" : "Clip_10_scale_0_1",
      "top" : "340_scale_0_1",
      "type" : "activation",
      "name" : "Clip_10_scale_0_1",
      "beta" : 0
    },
    {
      "bottom" : "340_scale_0_1",
      "weights" : {

      },
      "mode" : 7,
      "debug_info" : "Clip_10_clip_0_1",
      "top" : "340_clip_0_1",
      "type" : "activation",
      "name" : "Clip_10_clip_0_1",
      "beta" : 0
    },
    {
      "alpha" : 6,
      "bottom" : "340_clip_0_1",
      "weights" : {

      },
      "mode" : 6,
      "debug_info" : "Clip_10",
      "top" : "219",
      "type" : "activation",
      "name" : "Clip_10",
      "beta" : 0
    },
    {
      "pad_r" : 1,
      "fused_relu" : 0,
      "fused_tanh" : 0,
      "debug_info" : "Conv_11",
      "pad_fill_mode" : 0,
      "pad_b" : 1,
      "pad_l" : 1,
      "top" : "220",
      "blob_weights" : 27,
      "K" : 32,
      "blob_biases" : 25,
      "name" : "Conv_11",
      "has_batch_norm" : 0,
      "type" : "convolution",
      "n_groups" : 32,
      "pad_t" : 1,
      "has_biases" : 1,
      "C" : 32,
      "bottom" : "219",
      "weights" : {

      },
      "Nx" : 3,
      "pad_mode" : 0,
      "pad_value" : 0,
      "Ny" : 3,
      "n_parallel" : 1
    },
    {
      "alpha" : 0.1666666716337204,
      "bottom" : "220",
      "weights" : {

      },
      "mode" : 6,
      "debug_info" : "Clip_12_scale_0_1",
      "top" : "220_scale_0_1",
      "type" : "activation",
      "name" : "Clip_12_scale_0_1",
      "beta" : 0
    },
    {
      "bottom" : "220_scale_0_1",
      "weights" : {

      },
      "mode" : 7,
      "debug_info" : "Clip_12_clip_0_1",
      "top" : "220_clip_0_1",
      "type" : "activation",
      "name" : "Clip_12_clip_0_1",
      "beta" : 0
    },
    {
      "alpha" : 6,
      "bottom" : "220_clip_0_1",
      "weights" : {

      },
      "mode" : 6,
      "debug_info" : "Clip_12",
      "top" : "221",
      "type" : "activation",
      "name" : "Clip_12",
      "beta" : 0
    },
    {
      "pad_r" : 0,
      "fused_relu" : 0,
      "fused_tanh" : 0,
      "debug_info" : "Conv_13",
      "pad_fill_mode" : 0,
      "pad_b" : 0,
      "pad_l" : 0,
      "top" : "343",
      "blob_weights" : 31,
      "K" : 32,
      "blob_biases" : 29,
      "name" : "Conv_13",
      "has_batch_norm" : 0,
      "type" : "convolution",
      "n_groups" : 1,
      "pad_t" : 0,
      "has_biases" : 1,
      "C" : 16,
      "bottom" : "221",
      "weights" : {

      },
      "Nx" : 1,
      "pad_mode" : 0,
      "pad_value" : 0,
      "Ny" : 1,
      "n_parallel" : 1
    },
    {
      "bottom" : "337,343",
      "alpha" : 1,
      "operation" : 0,
      "weights" : {

      },
      "fused_relu" : 0,
      "debug_info" : "Add_14",
      "top" : "224",
      "type" : "elementwise",
      "name" : "Add_14",
      "beta" : 0
    },
    {
      "pad_r" : 0,
      "fused_relu" : 0,
      "fused_tanh" : 0,
      "debug_info" : "Conv_15",
      "pad_fill_mode" : 0,
      "pad_b" : 0,
      "pad_l" : 0,
      "top" : "346",
      "blob_weights" : 35,
      "K" : 16,
      "blob_biases" : 33,
      "name" : "Conv_15",
      "has_batch_norm" : 0,
      "type" : "convolution",
      "n_groups" : 1,
      "pad_t" : 0,
      "has_biases" : 1,
      "C" : 32,
      "bottom" : "224",
      "weights" : {

      },
      "Nx" : 1,
      "pad_mode" : 0,
      "pad_value" : 0,
      "Ny" : 1,
      "n_parallel" : 1
    },
    {
      "alpha" : 0.1666666716337204,
      "bottom" : "346",
      "weights" : {

      },
      "mode" : 6,
      "debug_info" : "Clip_16_scale_0_1",
      "top" : "346_scale_0_1",
      "type" : "activation",
      "name" : "Clip_16_scale_0_1",
      "beta" : 0
    },
    {
      "bottom" : "346_scale_0_1",
      "weights" : {

      },
      "mode" : 7,
      "debug_info" : "Clip_16_clip_0_1",
      "top" : "346_clip_0_1",
      "type" : "activation",
      "name" : "Clip_16_clip_0_1",
      "beta" : 0
    },
    {
      "alpha" : 6,
      "bottom" : "346_clip_0_1",
      "weights" : {

      },
      "mode" : 6,
      "debug_info" : "Clip_16",
      "top" : "227",
      "type" : "activation",
      "name" : "Clip_16",
      "beta" : 0
    },
    {
      "pad_r" : 1,
      "fused_relu" : 0,
      "fused_tanh" : 0,
      "debug_info" : "Conv_17",
      "pad_fill_mode" : 0,
      "pad_b" : 1,
      "pad_l" : 1,
      "top" : "228",
      "blob_weights" : 39,
      "K" : 32,
      "blob_biases" : 37,
      "name" : "Conv_17",
      "has_batch_norm" : 0,
      "type" : "convolution",
      "n_groups" : 32,
      "pad_t" : 1,
      "has_biases" : 1,
      "C" : 32,
      "bottom" : "227",
      "weights" : {

      },
      "Nx" : 3,
      "pad_mode" : 0,
      "pad_value" : 0,
      "Ny" : 3,
      "n_parallel" : 1
    },
    {
      "alpha" : 0.1666666716337204,
      "bottom" : "228",
      "weights" : {

      },
      "mode" : 6,
      "debug_info" : "Clip_18_scale_0_1",
      "top" : "228_scale_0_1",
      "type" : "activation",
      "name" : "Clip_18_scale_0_1",
      "beta" : 0
    },
    {
      "bottom" : "228_scale_0_1",
      "weights" : {

      },
      "mode" : 7,
      "debug_info" : "Clip_18_clip_0_1",
      "top" : "228_clip_0_1",
      "type" : "activation",
      "name" : "Clip_18_clip_0_1",
      "beta" : 0
    },
    {
      "alpha" : 6,
      "bottom" : "228_clip_0_1",
      "weights" : {

      },
      "mode" : 6,
      "debug_info" : "Clip_18",
      "top" : "229",
      "type" : "activation",
      "name" : "Clip_18",
      "beta" : 0
    },
    {
      "pad_r" : 0,
      "fused_relu" : 0,
      "fused_tanh" : 0,
      "debug_info" : "Conv_19",
      "pad_fill_mode" : 0,
      "pad_b" : 0,
      "pad_l" : 0,
      "top" : "349",
      "blob_weights" : 43,
      "K" : 32,
      "blob_biases" : 41,
      "name" : "Conv_19",
      "has_batch_norm" : 0,
      "type" : "convolution",
      "n_groups" : 1,
      "pad_t" : 0,
      "has_biases" : 1,
      "C" : 16,
      "bottom" : "229",
      "weights" : {

      },
      "Nx" : 1,
      "pad_mode" : 0,
      "pad_value" : 0,
      "Ny" : 1,
      "n_parallel" : 1
    },
    {
      "bottom" : "224,349",
      "alpha" : 1,
      "operation" : 0,
      "weights" : {

      },
      "fused_relu" : 0,
      "debug_info" : "Add_20",
      "top" : "232",
      "type" : "elementwise",
      "name" : "Add_20",
      "beta" : 0
    },
    {
      "pad_r" : 0,
      "fused_relu" : 0,
      "fused_tanh" : 0,
      "debug_info" : "Conv_21",
      "pad_fill_mode" : 0,
      "pad_b" : 0,
      "pad_l" : 0,
      "top" : "352",
      "blob_weights" : 47,
      "K" : 16,
      "blob_biases" : 45,
      "name" : "Conv_21",
      "has_batch_norm" : 0,
      "type" : "convolution",
      "n_groups" : 1,
      "pad_t" : 0,
      "has_biases" : 1,
      "C" : 32,
      "bottom" : "232",
      "weights" : {

      },
      "Nx" : 1,
      "pad_mode" : 0,
      "pad_value" : 0,
      "Ny" : 1,
      "n_parallel" : 1
    },
    {
      "alpha" : 0.1666666716337204,
      "bottom" : "352",
      "weights" : {

      },
      "mode" : 6,
      "debug_info" : "Clip_22_scale_0_1",
      "top" : "352_scale_0_1",
      "type" : "activation",
      "name" : "Clip_22_scale_0_1",
      "beta" : 0
    },
    {
      "bottom" : "352_scale_0_1",
      "weights" : {

      },
      "mode" : 7,
      "debug_info" : "Clip_22_clip_0_1",
      "top" : "352_clip_0_1",
      "type" : "activation",
      "name" : "Clip_22_clip_0_1",
      "beta" : 0
    },
    {
      "alpha" : 6,
      "bottom" : "352_clip_0_1",
      "weights" : {

      },
      "mode" : 6,
      "debug_info" : "Clip_22",
      "top" : "235",
      "type" : "activation",
      "name" : "Clip_22",
      "beta" : 0
    },
    {
      "pad_r" : 1,
      "fused_relu" : 0,
      "fused_tanh" : 0,
      "debug_info" : "Conv_23",
      "pad_fill_mode" : 0,
      "pad_b" : 1,
      "pad_l" : 1,
      "top" : "236",
      "blob_weights" : 51,
      "K" : 32,
      "blob_biases" : 49,
      "name" : "Conv_23",
      "has_batch_norm" : 0,
      "type" : "convolution",
      "n_groups" : 32,
      "pad_t" : 1,
      "has_biases" : 1,
      "C" : 32,
      "bottom" : "235",
      "weights" : {

      },
      "Nx" : 3,
      "pad_mode" : 0,
      "pad_value" : 0,
      "Ny" : 3,
      "n_parallel" : 1
    },
    {
      "alpha" : 0.1666666716337204,
      "bottom" : "236",
      "weights" : {

      },
      "mode" : 6,
      "debug_info" : "Clip_24_scale_0_1",
      "top" : "236_scale_0_1",
      "type" : "activation",
      "name" : "Clip_24_scale_0_1",
      "beta" : 0
    },
    {
      "bottom" : "236_scale_0_1",
      "weights" : {

      },
      "mode" : 7,
      "debug_info" : "Clip_24_clip_0_1",
      "top" : "236_clip_0_1",
      "type" : "activation",
      "name" : "Clip_24_clip_0_1",
      "beta" : 0
    },
    {
      "alpha" : 6,
      "bottom" : "236_clip_0_1",
      "weights" : {

      },
      "mode" : 6,
      "debug_info" : "Clip_24",
      "top" : "237",
      "type" : "activation",
      "name" : "Clip_24",
      "beta" : 0
    },
    {
      "pad_r" : 0,
      "fused_relu" : 0,
      "fused_tanh" : 0,
      "debug_info" : "Conv_25",
      "pad_fill_mode" : 0,
      "pad_b" : 0,
      "pad_l" : 0,
      "top" : "355",
      "blob_weights" : 55,
      "K" : 32,
      "blob_biases" : 53,
      "name" : "Conv_25",
      "has_batch_norm" : 0,
      "type" : "convolution",
      "n_groups" : 1,
      "pad_t" : 0,
      "has_biases" : 1,
      "C" : 16,
      "bottom" : "237",
      "weights" : {

      },
      "Nx" : 1,
      "pad_mode" : 0,
      "pad_value" : 0,
      "Ny" : 1,
      "n_parallel" : 1
    },
    {
      "bottom" : "232,355",
      "alpha" : 1,
      "operation" : 0,
      "weights" : {

      },
      "fused_relu" : 0,
      "debug_info" : "Add_26",
      "top" : "240",
      "type" : "elementwise",
      "name" : "Add_26",
      "beta" : 0
    },
    {
      "pad_r" : 0,
      "fused_relu" : 0,
      "fused_tanh" : 0,
      "debug_info" : "Conv_27",
      "pad_fill_mode" : 0,
      "pad_b" : 0,
      "pad_l" : 0,
      "top" : "358",
      "blob_weights" : 59,
      "K" : 16,
      "blob_biases" : 57,
      "name" : "Conv_27",
      "has_batch_norm" : 0,
      "type" : "convolution",
      "n_groups" : 1,
      "pad_t" : 0,
      "has_biases" : 1,
      "C" : 32,
      "bottom" : "240",
      "weights" : {

      },
      "Nx" : 1,
      "pad_mode" : 0,
      "pad_value" : 0,
      "Ny" : 1,
      "n_parallel" : 1
    },
    {
      "alpha" : 0.1666666716337204,
      "bottom" : "358",
      "weights" : {

      },
      "mode" : 6,
      "debug_info" : "Clip_28_scale_0_1",
      "top" : "358_scale_0_1",
      "type" : "activation",
      "name" : "Clip_28_scale_0_1",
      "beta" : 0
    },
    {
      "bottom" : "358_scale_0_1",
      "weights" : {

      },
      "mode" : 7,
      "debug_info" : "Clip_28_clip_0_1",
      "top" : "358_clip_0_1",
      "type" : "activation",
      "name" : "Clip_28_clip_0_1",
      "beta" : 0
    },
    {
      "alpha" : 6,
      "bottom" : "358_clip_0_1",
      "weights" : {

      },
      "mode" : 6,
      "debug_info" : "Clip_28",
      "top" : "243",
      "type" : "activation",
      "name" : "Clip_28",
      "beta" : 0
    },
    {
      "pad_r" : 1,
      "fused_relu" : 0,
      "fused_tanh" : 0,
      "debug_info" : "Conv_29",
      "pad_fill_mode" : 0,
      "pad_b" : 1,
      "pad_l" : 1,
      "top" : "244",
      "blob_weights" : 63,
      "K" : 32,
      "blob_biases" : 61,
      "name" : "Conv_29",
      "has_batch_norm" : 0,
      "type" : "convolution",
      "n_groups" : 32,
      "pad_t" : 1,
      "has_biases" : 1,
      "C" : 32,
      "bottom" : "243",
      "weights" : {

      },
      "Nx" : 3,
      "pad_mode" : 0,
      "pad_value" : 0,
      "Ny" : 3,
      "n_parallel" : 1
    },
    {
      "alpha" : 0.1666666716337204,
      "bottom" : "244",
      "weights" : {

      },
      "mode" : 6,
      "debug_info" : "Clip_30_scale_0_1",
      "top" : "244_scale_0_1",
      "type" : "activation",
      "name" : "Clip_30_scale_0_1",
      "beta" : 0
    },
    {
      "bottom" : "244_scale_0_1",
      "weights" : {

      },
      "mode" : 7,
      "debug_info" : "Clip_30_clip_0_1",
      "top" : "244_clip_0_1",
      "type" : "activation",
      "name" : "Clip_30_clip_0_1",
      "beta" : 0
    },
    {
      "alpha" : 6,
      "bottom" : "244_clip_0_1",
      "weights" : {

      },
      "mode" : 6,
      "debug_info" : "Clip_30",
      "top" : "245",
      "type" : "activation",
      "name" : "Clip_30",
      "beta" : 0
    },
    {
      "pad_r" : 0,
      "fused_relu" : 0,
      "fused_tanh" : 0,
      "debug_info" : "Conv_31",
      "pad_fill_mode" : 0,
      "pad_b" : 0,
      "pad_l" : 0,
      "top" : "361",
      "blob_weights" : 67,
      "K" : 32,
      "blob_biases" : 65,
      "name" : "Conv_31",
      "has_batch_norm" : 0,
      "type" : "convolution",
      "n_groups" : 1,
      "pad_t" : 0,
      "has_biases" : 1,
      "C" : 16,
      "bottom" : "245",
      "weights" : {

      },
      "Nx" : 1,
      "pad_mode" : 0,
      "pad_value" : 0,
      "Ny" : 1,
      "n_parallel" : 1
    },
    {
      "bottom" : "240,361",
      "alpha" : 1,
      "operation" : 0,
      "weights" : {

      },
      "fused_relu" : 0,
      "debug_info" : "Add_32",
      "top" : "248",
      "type" : "elementwise",
      "name" : "Add_32",
      "beta" : 0
    },
    {
      "pad_r" : 0,
      "fused_relu" : 0,
      "fused_tanh" : 0,
      "debug_info" : "Conv_33",
      "pad_fill_mode" : 0,
      "pad_b" : 0,
      "pad_l" : 0,
      "top" : "364",
      "blob_weights" : 71,
      "K" : 16,
      "blob_biases" : 69,
      "name" : "Conv_33",
      "has_batch_norm" : 0,
      "type" : "convolution",
      "n_groups" : 1,
      "pad_t" : 0,
      "has_biases" : 1,
      "C" : 32,
      "bottom" : "248",
      "weights" : {

      },
      "Nx" : 1,
      "pad_mode" : 0,
      "pad_value" : 0,
      "Ny" : 1,
      "n_parallel" : 1
    },
    {
      "alpha" : 0.1666666716337204,
      "bottom" : "364",
      "weights" : {

      },
      "mode" : 6,
      "debug_info" : "Clip_34_scale_0_1",
      "top" : "364_scale_0_1",
      "type" : "activation",
      "name" : "Clip_34_scale_0_1",
      "beta" : 0
    },
    {
      "bottom" : "364_scale_0_1",
      "weights" : {

      },
      "mode" : 7,
      "debug_info" : "Clip_34_clip_0_1",
      "top" : "364_clip_0_1",
      "type" : "activation",
      "name" : "Clip_34_clip_0_1",
      "beta" : 0
    },
    {
      "alpha" : 6,
      "bottom" : "364_clip_0_1",
      "weights" : {

      },
      "mode" : 6,
      "debug_info" : "Clip_34",
      "top" : "251",
      "type" : "activation",
      "name" : "Clip_34",
      "beta" : 0
    },
    {
      "pad_r" : 1,
      "fused_relu" : 0,
      "fused_tanh" : 0,
      "debug_info" : "Conv_35",
      "pad_fill_mode" : 0,
      "pad_b" : 1,
      "pad_l" : 1,
      "top" : "252",
      "blob_weights" : 75,
      "K" : 32,
      "blob_biases" : 73,
      "stride_x" : 2,
      "name" : "Conv_35",
      "has_batch_norm" : 0,
      "type" : "convolution",
      "n_groups" : 32,
      "pad_t" : 1,
      "stride_y" : 2,
      "has_biases" : 1,
      "C" : 32,
      "bottom" : "251",
      "weights" : {

      },
      "Nx" : 3,
      "pad_mode" : 0,
      "pad_value" : 0,
      "Ny" : 3,
      "n_parallel" : 1
    },
    {
      "alpha" : 0.1666666716337204,
      "bottom" : "252",
      "weights" : {

      },
      "mode" : 6,
      "debug_info" : "Clip_36_scale_0_1",
      "top" : "252_scale_0_1",
      "type" : "activation",
      "name" : "Clip_36_scale_0_1",
      "beta" : 0
    },
    {
      "bottom" : "252_scale_0_1",
      "weights" : {

      },
      "mode" : 7,
      "debug_info" : "Clip_36_clip_0_1",
      "top" : "252_clip_0_1",
      "type" : "activation",
      "name" : "Clip_36_clip_0_1",
      "beta" : 0
    },
    {
      "alpha" : 6,
      "bottom" : "252_clip_0_1",
      "weights" : {

      },
      "mode" : 6,
      "debug_info" : "Clip_36",
      "top" : "253",
      "type" : "activation",
      "name" : "Clip_36",
      "beta" : 0
    },
    {
      "pad_r" : 0,
      "fused_relu" : 0,
      "fused_tanh" : 0,
      "debug_info" : "Conv_37",
      "pad_fill_mode" : 0,
      "pad_b" : 0,
      "pad_l" : 0,
      "top" : "367",
      "blob_weights" : 79,
      "K" : 32,
      "blob_biases" : 77,
      "name" : "Conv_37",
      "has_batch_norm" : 0,
      "type" : "convolution",
      "n_groups" : 1,
      "pad_t" : 0,
      "has_biases" : 1,
      "C" : 32,
      "bottom" : "253",
      "weights" : {

      },
      "Nx" : 1,
      "pad_mode" : 0,
      "pad_value" : 0,
      "Ny" : 1,
      "n_parallel" : 1
    },
    {
      "pad_r" : 0,
      "fused_relu" : 0,
      "fused_tanh" : 0,
      "debug_info" : "Conv_38",
      "pad_fill_mode" : 0,
      "pad_b" : 0,
      "pad_l" : 0,
      "top" : "370",
      "blob_weights" : 83,
      "K" : 32,
      "blob_biases" : 81,
      "name" : "Conv_38",
      "has_batch_norm" : 0,
      "type" : "convolution",
      "n_groups" : 1,
      "pad_t" : 0,
      "has_biases" : 1,
      "C" : 128,
      "bottom" : "367",
      "weights" : {

      },
      "Nx" : 1,
      "pad_mode" : 0,
      "pad_value" : 0,
      "Ny" : 1,
      "n_parallel" : 1
    },
    {
      "alpha" : 0.1666666716337204,
      "bottom" : "370",
      "weights" : {

      },
      "mode" : 6,
      "debug_info" : "Clip_39_scale_0_1",
      "top" : "370_scale_0_1",
      "type" : "activation",
      "name" : "Clip_39_scale_0_1",
      "beta" : 0
    },
    {
      "bottom" : "370_scale_0_1",
      "weights" : {

      },
      "mode" : 7,
      "debug_info" : "Clip_39_clip_0_1",
      "top" : "370_clip_0_1",
      "type" : "activation",
      "name" : "Clip_39_clip_0_1",
      "beta" : 0
    },
    {
      "alpha" : 6,
      "bottom" : "370_clip_0_1",
      "weights" : {

      },
      "mode" : 6,
      "debug_info" : "Clip_39",
      "top" : "258",
      "type" : "activation",
      "name" : "Clip_39",
      "beta" : 0
    },
    {
      "pad_r" : 1,
      "fused_relu" : 0,
      "fused_tanh" : 0,
      "debug_info" : "Conv_40",
      "pad_fill_mode" : 0,
      "pad_b" : 1,
      "pad_l" : 1,
      "top" : "259",
      "blob_weights" : 87,
      "K" : 128,
      "blob_biases" : 85,
      "name" : "Conv_40",
      "has_batch_norm" : 0,
      "type" : "convolution",
      "n_groups" : 128,
      "pad_t" : 1,
      "has_biases" : 1,
      "C" : 128,
      "bottom" : "258",
      "weights" : {

      },
      "Nx" : 3,
      "pad_mode" : 0,
      "pad_value" : 0,
      "Ny" : 3,
      "n_parallel" : 1
    },
    {
      "alpha" : 0.1666666716337204,
      "bottom" : "259",
      "weights" : {

      },
      "mode" : 6,
      "debug_info" : "Clip_41_scale_0_1",
      "top" : "259_scale_0_1",
      "type" : "activation",
      "name" : "Clip_41_scale_0_1",
      "beta" : 0
    },
    {
      "bottom" : "259_scale_0_1",
      "weights" : {

      },
      "mode" : 7,
      "debug_info" : "Clip_41_clip_0_1",
      "top" : "259_clip_0_1",
      "type" : "activation",
      "name" : "Clip_41_clip_0_1",
      "beta" : 0
    },
    {
      "alpha" : 6,
      "bottom" : "259_clip_0_1",
      "weights" : {

      },
      "mode" : 6,
      "debug_info" : "Clip_41",
      "top" : "260",
      "type" : "activation",
      "name" : "Clip_41",
      "beta" : 0
    },
    {
      "pad_r" : 0,
      "fused_relu" : 0,
      "fused_tanh" : 0,
      "debug_info" : "Conv_42",
      "pad_fill_mode" : 0,
      "pad_b" : 0,
      "pad_l" : 0,
      "top" : "373",
      "blob_weights" : 91,
      "K" : 128,
      "blob_biases" : 89,
      "name" : "Conv_42",
      "has_batch_norm" : 0,
      "type" : "convolution",
      "n_groups" : 1,
      "pad_t" : 0,
      "has_biases" : 1,
      "C" : 32,
      "bottom" : "260",
      "weights" : {

      },
      "Nx" : 1,
      "pad_mode" : 0,
      "pad_value" : 0,
      "Ny" : 1,
      "n_parallel" : 1
    },
    {
      "bottom" : "367,373",
      "alpha" : 1,
      "operation" : 0,
      "weights" : {

      },
      "fused_relu" : 0,
      "debug_info" : "Add_43",
      "top" : "263",
      "type" : "elementwise",
      "name" : "Add_43",
      "beta" : 0
    },
    {
      "pad_r" : 0,
      "fused_relu" : 0,
      "fused_tanh" : 0,
      "debug_info" : "Conv_44",
      "pad_fill_mode" : 0,
      "pad_b" : 0,
      "pad_l" : 0,
      "top" : "376",
      "blob_weights" : 95,
      "K" : 32,
      "blob_biases" : 93,
      "name" : "Conv_44",
      "has_batch_norm" : 0,
      "type" : "convolution",
      "n_groups" : 1,
      "pad_t" : 0,
      "has_biases" : 1,
      "C" : 128,
      "bottom" : "263",
      "weights" : {

      },
      "Nx" : 1,
      "pad_mode" : 0,
      "pad_value" : 0,
      "Ny" : 1,
      "n_parallel" : 1
    },
    {
      "alpha" : 0.1666666716337204,
      "bottom" : "376",
      "weights" : {

      },
      "mode" : 6,
      "debug_info" : "Clip_45_scale_0_1",
      "top" : "376_scale_0_1",
      "type" : "activation",
      "name" : "Clip_45_scale_0_1",
      "beta" : 0
    },
    {
      "bottom" : "376_scale_0_1",
      "weights" : {

      },
      "mode" : 7,
      "debug_info" : "Clip_45_clip_0_1",
      "top" : "376_clip_0_1",
      "type" : "activation",
      "name" : "Clip_45_clip_0_1",
      "beta" : 0
    },
    {
      "alpha" : 6,
      "bottom" : "376_clip_0_1",
      "weights" : {

      },
      "mode" : 6,
      "debug_info" : "Clip_45",
      "top" : "266",
      "type" : "activation",
      "name" : "Clip_45",
      "beta" : 0
    },
    {
      "pad_r" : 1,
      "fused_relu" : 0,
      "fused_tanh" : 0,
      "debug_info" : "Conv_46",
      "pad_fill_mode" : 0,
      "pad_b" : 1,
      "pad_l" : 1,
      "top" : "267",
      "blob_weights" : 99,
      "K" : 128,
      "blob_biases" : 97,
      "name" : "Conv_46",
      "has_batch_norm" : 0,
      "type" : "convolution",
      "n_groups" : 128,
      "pad_t" : 1,
      "has_biases" : 1,
      "C" : 128,
      "bottom" : "266",
      "weights" : {

      },
      "Nx" : 3,
      "pad_mode" : 0,
      "pad_value" : 0,
      "Ny" : 3,
      "n_parallel" : 1
    },
    {
      "alpha" : 0.1666666716337204,
      "bottom" : "267",
      "weights" : {

      },
      "mode" : 6,
      "debug_info" : "Clip_47_scale_0_1",
      "top" : "267_scale_0_1",
      "type" : "activation",
      "name" : "Clip_47_scale_0_1",
      "beta" : 0
    },
    {
      "bottom" : "267_scale_0_1",
      "weights" : {

      },
      "mode" : 7,
      "debug_info" : "Clip_47_clip_0_1",
      "top" : "267_clip_0_1",
      "type" : "activation",
      "name" : "Clip_47_clip_0_1",
      "beta" : 0
    },
    {
      "alpha" : 6,
      "bottom" : "267_clip_0_1",
      "weights" : {

      },
      "mode" : 6,
      "debug_info" : "Clip_47",
      "top" : "268",
      "type" : "activation",
      "name" : "Clip_47",
      "beta" : 0
    },
    {
      "pad_r" : 0,
      "fused_relu" : 0,
      "fused_tanh" : 0,
      "debug_info" : "Conv_48",
      "pad_fill_mode" : 0,
      "pad_b" : 0,
      "pad_l" : 0,
      "top" : "379",
      "blob_weights" : 103,
      "K" : 128,
      "blob_biases" : 101,
      "name" : "Conv_48",
      "has_batch_norm" : 0,
      "type" : "convolution",
      "n_groups" : 1,
      "pad_t" : 0,
      "has_biases" : 1,
      "C" : 32,
      "bottom" : "268",
      "weights" : {

      },
      "Nx" : 1,
      "pad_mode" : 0,
      "pad_value" : 0,
      "Ny" : 1,
      "n_parallel" : 1
    },
    {
      "bottom" : "263,379",
      "alpha" : 1,
      "operation" : 0,
      "weights" : {

      },
      "fused_relu" : 0,
      "debug_info" : "Add_49",
      "top" : "271",
      "type" : "elementwise",
      "name" : "Add_49",
      "beta" : 0
    },
    {
      "pad_r" : 0,
      "fused_relu" : 0,
      "fused_tanh" : 0,
      "debug_info" : "Conv_50",
      "pad_fill_mode" : 0,
      "pad_b" : 0,
      "pad_l" : 0,
      "top" : "382",
      "blob_weights" : 107,
      "K" : 32,
      "blob_biases" : 105,
      "name" : "Conv_50",
      "has_batch_norm" : 0,
      "type" : "convolution",
      "n_groups" : 1,
      "pad_t" : 0,
      "has_biases" : 1,
      "C" : 128,
      "bottom" : "271",
      "weights" : {

      },
      "Nx" : 1,
      "pad_mode" : 0,
      "pad_value" : 0,
      "Ny" : 1,
      "n_parallel" : 1
    },
    {
      "alpha" : 0.1666666716337204,
      "bottom" : "382",
      "weights" : {

      },
      "mode" : 6,
      "debug_info" : "Clip_51_scale_0_1",
      "top" : "382_scale_0_1",
      "type" : "activation",
      "name" : "Clip_51_scale_0_1",
      "beta" : 0
    },
    {
      "bottom" : "382_scale_0_1",
      "weights" : {

      },
      "mode" : 7,
      "debug_info" : "Clip_51_clip_0_1",
      "top" : "382_clip_0_1",
      "type" : "activation",
      "name" : "Clip_51_clip_0_1",
      "beta" : 0
    },
    {
      "alpha" : 6,
      "bottom" : "382_clip_0_1",
      "weights" : {

      },
      "mode" : 6,
      "debug_info" : "Clip_51",
      "top" : "274",
      "type" : "activation",
      "name" : "Clip_51",
      "beta" : 0
    },
    {
      "pad_r" : 1,
      "fused_relu" : 0,
      "fused_tanh" : 0,
      "debug_info" : "Conv_52",
      "pad_fill_mode" : 0,
      "pad_b" : 1,
      "pad_l" : 1,
      "top" : "275",
      "blob_weights" : 111,
      "K" : 128,
      "blob_biases" : 109,
      "name" : "Conv_52",
      "has_batch_norm" : 0,
      "type" : "convolution",
      "n_groups" : 128,
      "pad_t" : 1,
      "has_biases" : 1,
      "C" : 128,
      "bottom" : "274",
      "weights" : {

      },
      "Nx" : 3,
      "pad_mode" : 0,
      "pad_value" : 0,
      "Ny" : 3,
      "n_parallel" : 1
    },
    {
      "alpha" : 0.1666666716337204,
      "bottom" : "275",
      "weights" : {

      },
      "mode" : 6,
      "debug_info" : "Clip_53_scale_0_1",
      "top" : "275_scale_0_1",
      "type" : "activation",
      "name" : "Clip_53_scale_0_1",
      "beta" : 0
    },
    {
      "bottom" : "275_scale_0_1",
      "weights" : {

      },
      "mode" : 7,
      "debug_info" : "Clip_53_clip_0_1",
      "top" : "275_clip_0_1",
      "type" : "activation",
      "name" : "Clip_53_clip_0_1",
      "beta" : 0
    },
    {
      "alpha" : 6,
      "bottom" : "275_clip_0_1",
      "weights" : {

      },
      "mode" : 6,
      "debug_info" : "Clip_53",
      "top" : "276",
      "type" : "activation",
      "name" : "Clip_53",
      "beta" : 0
    },
    {
      "pad_r" : 0,
      "fused_relu" : 0,
      "fused_tanh" : 0,
      "debug_info" : "Conv_54",
      "pad_fill_mode" : 0,
      "pad_b" : 0,
      "pad_l" : 0,
      "top" : "385",
      "blob_weights" : 115,
      "K" : 128,
      "blob_biases" : 113,
      "name" : "Conv_54",
      "has_batch_norm" : 0,
      "type" : "convolution",
      "n_groups" : 1,
      "pad_t" : 0,
      "has_biases" : 1,
      "C" : 32,
      "bottom" : "276",
      "weights" : {

      },
      "Nx" : 1,
      "pad_mode" : 0,
      "pad_value" : 0,
      "Ny" : 1,
      "n_parallel" : 1
    },
    {
      "bottom" : "271,385",
      "alpha" : 1,
      "operation" : 0,
      "weights" : {

      },
      "fused_relu" : 0,
      "debug_info" : "Add_55",
      "top" : "279",
      "type" : "elementwise",
      "name" : "Add_55",
      "beta" : 0
    },
    {
      "pad_r" : 0,
      "fused_relu" : 0,
      "fused_tanh" : 0,
      "debug_info" : "Conv_56",
      "pad_fill_mode" : 0,
      "pad_b" : 0,
      "pad_l" : 0,
      "top" : "388",
      "blob_weights" : 119,
      "K" : 32,
      "blob_biases" : 117,
      "name" : "Conv_56",
      "has_batch_norm" : 0,
      "type" : "convolution",
      "n_groups" : 1,
      "pad_t" : 0,
      "has_biases" : 1,
      "C" : 128,
      "bottom" : "279",
      "weights" : {

      },
      "Nx" : 1,
      "pad_mode" : 0,
      "pad_value" : 0,
      "Ny" : 1,
      "n_parallel" : 1
    },
    {
      "alpha" : 0.1666666716337204,
      "bottom" : "388",
      "weights" : {

      },
      "mode" : 6,
      "debug_info" : "Clip_57_scale_0_1",
      "top" : "388_scale_0_1",
      "type" : "activation",
      "name" : "Clip_57_scale_0_1",
      "beta" : 0
    },
    {
      "bottom" : "388_scale_0_1",
      "weights" : {

      },
      "mode" : 7,
      "debug_info" : "Clip_57_clip_0_1",
      "top" : "388_clip_0_1",
      "type" : "activation",
      "name" : "Clip_57_clip_0_1",
      "beta" : 0
    },
    {
      "alpha" : 6,
      "bottom" : "388_clip_0_1",
      "weights" : {

      },
      "mode" : 6,
      "debug_info" : "Clip_57",
      "top" : "282",
      "type" : "activation",
      "name" : "Clip_57",
      "beta" : 0
    },
    {
      "pad_r" : 1,
      "fused_relu" : 0,
      "fused_tanh" : 0,
      "debug_info" : "Conv_58",
      "pad_fill_mode" : 0,
      "pad_b" : 1,
      "pad_l" : 1,
      "top" : "283",
      "blob_weights" : 123,
      "K" : 128,
      "blob_biases" : 121,
      "name" : "Conv_58",
      "has_batch_norm" : 0,
      "type" : "convolution",
      "n_groups" : 128,
      "pad_t" : 1,
      "has_biases" : 1,
      "C" : 128,
      "bottom" : "282",
      "weights" : {

      },
      "Nx" : 3,
      "pad_mode" : 0,
      "pad_value" : 0,
      "Ny" : 3,
      "n_parallel" : 1
    },
    {
      "alpha" : 0.1666666716337204,
      "bottom" : "283",
      "weights" : {

      },
      "mode" : 6,
      "debug_info" : "Clip_59_scale_0_1",
      "top" : "283_scale_0_1",
      "type" : "activation",
      "name" : "Clip_59_scale_0_1",
      "beta" : 0
    },
    {
      "bottom" : "283_scale_0_1",
      "weights" : {

      },
      "mode" : 7,
      "debug_info" : "Clip_59_clip_0_1",
      "top" : "283_clip_0_1",
      "type" : "activation",
      "name" : "Clip_59_clip_0_1",
      "beta" : 0
    },
    {
      "alpha" : 6,
      "bottom" : "283_clip_0_1",
      "weights" : {

      },
      "mode" : 6,
      "debug_info" : "Clip_59",
      "top" : "284",
      "type" : "activation",
      "name" : "Clip_59",
      "beta" : 0
    },
    {
      "pad_r" : 0,
      "fused_relu" : 0,
      "fused_tanh" : 0,
      "debug_info" : "Conv_60",
      "pad_fill_mode" : 0,
      "pad_b" : 0,
      "pad_l" : 0,
      "top" : "391",
      "blob_weights" : 127,
      "K" : 128,
      "blob_biases" : 125,
      "name" : "Conv_60",
      "has_batch_norm" : 0,
      "type" : "convolution",
      "n_groups" : 1,
      "pad_t" : 0,
      "has_biases" : 1,
      "C" : 32,
      "bottom" : "284",
      "weights" : {

      },
      "Nx" : 1,
      "pad_mode" : 0,
      "pad_value" : 0,
      "Ny" : 1,
      "n_parallel" : 1
    },
    {
      "bottom" : "279,391",
      "alpha" : 1,
      "operation" : 0,
      "weights" : {

      },
      "fused_relu" : 0,
      "debug_info" : "Add_61",
      "top" : "287",
      "type" : "elementwise",
      "name" : "Add_61",
      "beta" : 0
    },
    {
      "pad_r" : 0,
      "fused_relu" : 0,
      "fused_tanh" : 0,
      "debug_info" : "Conv_62",
      "pad_fill_mode" : 0,
      "pad_b" : 0,
      "pad_l" : 0,
      "top" : "394",
      "blob_weights" : 131,
      "K" : 32,
      "blob_biases" : 129,
      "name" : "Conv_62",
      "has_batch_norm" : 0,
      "type" : "convolution",
      "n_groups" : 1,
      "pad_t" : 0,
      "has_biases" : 1,
      "C" : 128,
      "bottom" : "287",
      "weights" : {

      },
      "Nx" : 1,
      "pad_mode" : 0,
      "pad_value" : 0,
      "Ny" : 1,
      "n_parallel" : 1
    },
    {
      "alpha" : 0.1666666716337204,
      "bottom" : "394",
      "weights" : {

      },
      "mode" : 6,
      "debug_info" : "Clip_63_scale_0_1",
      "top" : "394_scale_0_1",
      "type" : "activation",
      "name" : "Clip_63_scale_0_1",
      "beta" : 0
    },
    {
      "bottom" : "394_scale_0_1",
      "weights" : {

      },
      "mode" : 7,
      "debug_info" : "Clip_63_clip_0_1",
      "top" : "394_clip_0_1",
      "type" : "activation",
      "name" : "Clip_63_clip_0_1",
      "beta" : 0
    },
    {
      "alpha" : 6,
      "bottom" : "394_clip_0_1",
      "weights" : {

      },
      "mode" : 6,
      "debug_info" : "Clip_63",
      "top" : "290",
      "type" : "activation",
      "name" : "Clip_63",
      "beta" : 0
    },
    {
      "pad_r" : 1,
      "fused_relu" : 0,
      "fused_tanh" : 0,
      "debug_info" : "Conv_64",
      "pad_fill_mode" : 0,
      "pad_b" : 1,
      "pad_l" : 1,
      "top" : "291",
      "blob_weights" : 135,
      "K" : 128,
      "blob_biases" : 133,
      "name" : "Conv_64",
      "has_batch_norm" : 0,
      "type" : "convolution",
      "n_groups" : 128,
      "pad_t" : 1,
      "has_biases" : 1,
      "C" : 128,
      "bottom" : "290",
      "weights" : {

      },
      "Nx" : 3,
      "pad_mode" : 0,
      "pad_value" : 0,
      "Ny" : 3,
      "n_parallel" : 1
    },
    {
      "alpha" : 0.1666666716337204,
      "bottom" : "291",
      "weights" : {

      },
      "mode" : 6,
      "debug_info" : "Clip_65_scale_0_1",
      "top" : "291_scale_0_1",
      "type" : "activation",
      "name" : "Clip_65_scale_0_1",
      "beta" : 0
    },
    {
      "bottom" : "291_scale_0_1",
      "weights" : {

      },
      "mode" : 7,
      "debug_info" : "Clip_65_clip_0_1",
      "top" : "291_clip_0_1",
      "type" : "activation",
      "name" : "Clip_65_clip_0_1",
      "beta" : 0
    },
    {
      "alpha" : 6,
      "bottom" : "291_clip_0_1",
      "weights" : {

      },
      "mode" : 6,
      "debug_info" : "Clip_65",
      "top" : "292",
      "type" : "activation",
      "name" : "Clip_65",
      "beta" : 0
    },
    {
      "pad_r" : 0,
      "fused_relu" : 0,
      "fused_tanh" : 0,
      "debug_info" : "Conv_66",
      "pad_fill_mode" : 0,
      "pad_b" : 0,
      "pad_l" : 0,
      "top" : "397",
      "blob_weights" : 139,
      "K" : 128,
      "blob_biases" : 137,
      "name" : "Conv_66",
      "has_batch_norm" : 0,
      "type" : "convolution",
      "n_groups" : 1,
      "pad_t" : 0,
      "has_biases" : 1,
      "C" : 32,
      "bottom" : "292",
      "weights" : {

      },
      "Nx" : 1,
      "pad_mode" : 0,
      "pad_value" : 0,
      "Ny" : 1,
      "n_parallel" : 1
    },
    {
      "bottom" : "287,397",
      "alpha" : 1,
      "operation" : 0,
      "weights" : {

      },
      "fused_relu" : 0,
      "debug_info" : "Add_67",
      "top" : "295",
      "type" : "elementwise",
      "name" : "Add_67",
      "beta" : 0
    },
    {
      "pad_r" : 0,
      "fused_relu" : 0,
      "fused_tanh" : 0,
      "debug_info" : "Conv_68",
      "pad_fill_mode" : 0,
      "pad_b" : 0,
      "pad_l" : 0,
      "top" : "400",
      "blob_weights" : 143,
      "K" : 32,
      "blob_biases" : 141,
      "name" : "Conv_68",
      "has_batch_norm" : 0,
      "type" : "convolution",
      "n_groups" : 1,
      "pad_t" : 0,
      "has_biases" : 1,
      "C" : 128,
      "bottom" : "295",
      "weights" : {

      },
      "Nx" : 1,
      "pad_mode" : 0,
      "pad_value" : 0,
      "Ny" : 1,
      "n_parallel" : 1
    },
    {
      "alpha" : 0.1666666716337204,
      "bottom" : "400",
      "weights" : {

      },
      "mode" : 6,
      "debug_info" : "Clip_69_scale_0_1",
      "top" : "400_scale_0_1",
      "type" : "activation",
      "name" : "Clip_69_scale_0_1",
      "beta" : 0
    },
    {
      "bottom" : "400_scale_0_1",
      "weights" : {

      },
      "mode" : 7,
      "debug_info" : "Clip_69_clip_0_1",
      "top" : "400_clip_0_1",
      "type" : "activation",
      "name" : "Clip_69_clip_0_1",
      "beta" : 0
    },
    {
      "alpha" : 6,
      "bottom" : "400_clip_0_1",
      "weights" : {

      },
      "mode" : 6,
      "debug_info" : "Clip_69",
      "top" : "298",
      "type" : "activation",
      "name" : "Clip_69",
      "beta" : 0
    },
    {
      "pad_r" : 1,
      "fused_relu" : 0,
      "fused_tanh" : 0,
      "debug_info" : "Conv_70",
      "pad_fill_mode" : 0,
      "pad_b" : 1,
      "pad_l" : 1,
      "top" : "299",
      "blob_weights" : 147,
      "K" : 128,
      "blob_biases" : 145,
      "name" : "Conv_70",
      "has_batch_norm" : 0,
      "type" : "convolution",
      "n_groups" : 128,
      "pad_t" : 1,
      "has_biases" : 1,
      "C" : 128,
      "bottom" : "298",
      "weights" : {

      },
      "Nx" : 3,
      "pad_mode" : 0,
      "pad_value" : 0,
      "Ny" : 3,
      "n_parallel" : 1
    },
    {
      "alpha" : 0.1666666716337204,
      "bottom" : "299",
      "weights" : {

      },
      "mode" : 6,
      "debug_info" : "Clip_71_scale_0_1",
      "top" : "299_scale_0_1",
      "type" : "activation",
      "name" : "Clip_71_scale_0_1",
      "beta" : 0
    },
    {
      "bottom" : "299_scale_0_1",
      "weights" : {

      },
      "mode" : 7,
      "debug_info" : "Clip_71_clip_0_1",
      "top" : "299_clip_0_1",
      "type" : "activation",
      "name" : "Clip_71_clip_0_1",
      "beta" : 0
    },
    {
      "alpha" : 6,
      "bottom" : "299_clip_0_1",
      "weights" : {

      },
      "mode" : 6,
      "debug_info" : "Clip_71",
      "top" : "300",
      "type" : "activation",
      "name" : "Clip_71",
      "beta" : 0
    },
    {
      "pad_r" : 0,
      "fused_relu" : 0,
      "fused_tanh" : 0,
      "debug_info" : "Conv_72",
      "pad_fill_mode" : 0,
      "pad_b" : 0,
      "pad_l" : 0,
      "top" : "403",
      "blob_weights" : 151,
      "K" : 128,
      "blob_biases" : 149,
      "name" : "Conv_72",
      "has_batch_norm" : 0,
      "type" : "convolution",
      "n_groups" : 1,
      "pad_t" : 0,
      "has_biases" : 1,
      "C" : 32,
      "bottom" : "300",
      "weights" : {

      },
      "Nx" : 1,
      "pad_mode" : 0,
      "pad_value" : 0,
      "Ny" : 1,
      "n_parallel" : 1
    },
    {
      "bottom" : "295,403",
      "alpha" : 1,
      "operation" : 0,
      "weights" : {

      },
      "fused_relu" : 0,
      "debug_info" : "Add_73",
      "top" : "303",
      "type" : "elementwise",
      "name" : "Add_73",
      "beta" : 0
    },
    {
      "pad_r" : 0,
      "fused_relu" : 0,
      "fused_tanh" : 0,
      "debug_info" : "Conv_74",
      "pad_fill_mode" : 0,
      "pad_b" : 0,
      "pad_l" : 0,
      "top" : "406",
      "blob_weights" : 155,
      "K" : 32,
      "blob_biases" : 153,
      "name" : "Conv_74",
      "has_batch_norm" : 0,
      "type" : "convolution",
      "n_groups" : 1,
      "pad_t" : 0,
      "has_biases" : 1,
      "C" : 64,
      "bottom" : "303",
      "weights" : {

      },
      "Nx" : 1,
      "pad_mode" : 0,
      "pad_value" : 0,
      "Ny" : 1,
      "n_parallel" : 1
    },
    {
      "alpha" : 0.1666666716337204,
      "bottom" : "406",
      "weights" : {

      },
      "mode" : 6,
      "debug_info" : "Clip_75_scale_0_1",
      "top" : "406_scale_0_1",
      "type" : "activation",
      "name" : "Clip_75_scale_0_1",
      "beta" : 0
    },
    {
      "bottom" : "406_scale_0_1",
      "weights" : {

      },
      "mode" : 7,
      "debug_info" : "Clip_75_clip_0_1",
      "top" : "406_clip_0_1",
      "type" : "activation",
      "name" : "Clip_75_clip_0_1",
      "beta" : 0
    },
    {
      "alpha" : 6,
      "bottom" : "406_clip_0_1",
      "weights" : {

      },
      "mode" : 6,
      "debug_info" : "Clip_75",
      "top" : "306",
      "type" : "activation",
      "name" : "Clip_75",
      "beta" : 0
    },
    {
      "pad_r" : 1,
      "fused_relu" : 0,
      "fused_tanh" : 0,
      "debug_info" : "Conv_76",
      "pad_fill_mode" : 0,
      "pad_b" : 1,
      "pad_l" : 1,
      "top" : "307",
      "blob_weights" : 159,
      "K" : 64,
      "blob_biases" : 157,
      "name" : "Conv_76",
      "has_batch_norm" : 0,
      "type" : "convolution",
      "n_groups" : 64,
      "pad_t" : 1,
      "has_biases" : 1,
      "C" : 64,
      "bottom" : "306",
      "weights" : {

      },
      "Nx" : 3,
      "pad_mode" : 0,
      "pad_value" : 0,
      "Ny" : 3,
      "n_parallel" : 1
    },
    {
      "alpha" : 0.1666666716337204,
      "bottom" : "307",
      "weights" : {

      },
      "mode" : 6,
      "debug_info" : "Clip_77_scale_0_1",
      "top" : "307_scale_0_1",
      "type" : "activation",
      "name" : "Clip_77_scale_0_1",
      "beta" : 0
    },
    {
      "bottom" : "307_scale_0_1",
      "weights" : {

      },
      "mode" : 7,
      "debug_info" : "Clip_77_clip_0_1",
      "top" : "307_clip_0_1",
      "type" : "activation",
      "name" : "Clip_77_clip_0_1",
      "beta" : 0
    },
    {
      "alpha" : 6,
      "bottom" : "307_clip_0_1",
      "weights" : {

      },
      "mode" : 6,
      "debug_info" : "Clip_77",
      "top" : "308",
      "type" : "activation",
      "name" : "Clip_77",
      "beta" : 0
    },
    {
      "pad_r" : 0,
      "fused_relu" : 0,
      "fused_tanh" : 0,
      "debug_info" : "Conv_78",
      "pad_fill_mode" : 0,
      "pad_b" : 0,
      "pad_l" : 0,
      "top" : "409",
      "blob_weights" : 163,
      "K" : 64,
      "blob_biases" : 161,
      "name" : "Conv_78",
      "has_batch_norm" : 0,
      "type" : "convolution",
      "n_groups" : 1,
      "pad_t" : 0,
      "has_biases" : 1,
      "C" : 16,
      "bottom" : "308",
      "weights" : {

      },
      "Nx" : 1,
      "pad_mode" : 0,
      "pad_value" : 0,
      "Ny" : 1,
      "n_parallel" : 1
    },
    {
      "pad_r" : 0,
      "fused_relu" : 0,
      "fused_tanh" : 0,
      "debug_info" : "Conv_79",
      "pad_fill_mode" : 0,
      "pad_b" : 0,
      "pad_l" : 0,
      "top" : "311",
      "blob_weights" : 165,
      "K" : 16,
      "name" : "Conv_79",
      "has_batch_norm" : 0,
      "type" : "convolution",
      "n_groups" : 1,
      "pad_t" : 0,
      "has_biases" : 0,
      "C" : 4,
      "bottom" : "409",
      "weights" : {

      },
      "Nx" : 1,
      "pad_mode" : 0,
      "pad_value" : 0,
      "Ny" : 1,
      "n_parallel" : 1
    },
    {
      "bottom" : "311",
      "weights" : {

      },
      "mode" : 0,
      "nd_axis" : 0,
      "debug_info" : "Flatten_80",
      "top" : "312",
      "type" : "flatten",
      "name" : "Flatten_80"
    },
    {
      "pad_r" : 1,
      "fused_relu" : 0,
      "fused_tanh" : 0,
      "debug_info" : "Conv_81",
      "pad_fill_mode" : 0,
      "pad_b" : 1,
      "pad_l" : 1,
      "top" : "313",
      "blob_weights" : 169,
      "K" : 16,
      "blob_biases" : 167,
      "stride_x" : 2,
      "name" : "Conv_81",
      "has_batch_norm" : 0,
      "type" : "convolution",
      "n_groups" : 1,
      "pad_t" : 1,
      "stride_y" : 2,
      "has_biases" : 1,
      "C" : 32,
      "bottom" : "409",
      "weights" : {

      },
      "Nx" : 3,
      "pad_mode" : 0,
      "pad_value" : 0,
      "Ny" : 3,
      "n_parallel" : 1
    },
    {
      "alpha" : 0.1666666716337204,
      "bottom" : "313",
      "weights" : {

      },
      "mode" : 6,
      "debug_info" : "Clip_82_scale_0_1",
      "top" : "313_scale_0_1",
      "type" : "activation",
      "name" : "Clip_82_scale_0_1",
      "beta" : 0
    },
    {
      "bottom" : "313_scale_0_1",
      "weights" : {

      },
      "mode" : 7,
      "debug_info" : "Clip_82_clip_0_1",
      "top" : "313_clip_0_1",
      "type" : "activation",
      "name" : "Clip_82_clip_0_1",
      "beta" : 0
    },
    {
      "alpha" : 6,
      "bottom" : "313_clip_0_1",
      "weights" : {

      },
      "mode" : 6,
      "debug_info" : "Clip_82",
      "top" : "314",
      "type" : "activation",
      "name" : "Clip_82",
      "beta" : 0
    },
    {
      "pad_r" : 0,
      "fused_relu" : 0,
      "fused_tanh" : 0,
      "debug_info" : "Conv_83",
      "pad_fill_mode" : 0,
      "pad_b" : 0,
      "pad_l" : 0,
      "top" : "315",
      "blob_weights" : 171,
      "K" : 32,
      "name" : "Conv_83",
      "has_batch_norm" : 0,
      "type" : "convolution",
      "n_groups" : 1,
      "pad_t" : 0,
      "has_biases" : 0,
      "C" : 8,
      "bottom" : "314",
      "weights" : {

      },
      "Nx" : 1,
      "pad_mode" : 0,
      "pad_value" : 0,
      "Ny" : 1,
      "n_parallel" : 1
    },
    {
      "bottom" : "315",
      "weights" : {

      },
      "mode" : 0,
      "nd_axis" : 0,
      "debug_info" : "Flatten_84",
      "top" : "316",
      "type" : "flatten",
      "name" : "Flatten_84"
    },
    {
      "pad_r" : 0,
      "fused_relu" : 0,
      "fused_tanh" : 0,
      "debug_info" : "Conv_85",
      "pad_fill_mode" : 0,
      "pad_b" : 0,
      "pad_l" : 0,
      "top" : "317",
      "blob_weights" : 175,
      "K" : 32,
      "blob_biases" : 173,
      "name" : "Conv_85",
      "has_batch_norm" : 0,
      "type" : "convolution",
      "n_groups" : 1,
      "pad_t" : 0,
      "has_biases" : 1,
      "C" : 128,
      "bottom" : "314",
      "weights" : {

      },
      "Nx" : 7,
      "pad_mode" : 0,
      "pad_value" : 0,
      "Ny" : 7,
      "n_parallel" : 1
    },
    {
      "alpha" : 0.1666666716337204,
      "bottom" : "317",
      "weights" : {

      },
      "mode" : 6,
      "debug_info" : "Clip_86_scale_0_1",
      "top" : "317_scale_0_1",
      "type" : "activation",
      "name" : "Clip_86_scale_0_1",
      "beta" : 0
    },
    {
      "bottom" : "317_scale_0_1",
      "weights" : {

      },
      "mode" : 7,
      "debug_info" : "Clip_86_clip_0_1",
      "top" : "317_clip_0_1",
      "type" : "activation",
      "name" : "Clip_86_clip_0_1",
      "beta" : 0
    },
    {
      "alpha" : 6,
      "bottom" : "317_clip_0_1",
      "weights" : {

      },
      "mode" : 6,
      "debug_info" : "Clip_86",
      "top" : "318",
      "type" : "activation",
      "name" : "Clip_86",
      "beta" : 0
    },
    {
      "bottom" : "318",
      "weights" : {

      },
      "mode" : 0,
      "nd_axis" : 0,
      "debug_info" : "Flatten_87",
      "top" : "319",
      "type" : "flatten",
      "name" : "Flatten_87"
    },
    {
      "weights" : {

      },
      "debug_info" : "Concat_88",
      "top" : "320",
      "type" : "concat",
      "name" : "Concat_88",
      "bottom" : "312,316,319"
    },
    {
      "pad_r" : 1,
      "fused_relu" : 0,
      "fused_tanh" : 0,
      "debug_info" : "Conv_89",
      "pad_fill_mode" : 0,
      "pad_b" : 1,
      "pad_l" : 1,
      "top" : "321",
      "blob_weights" : 179,
      "K" : 16,
      "blob_biases" : 177,
      "stride_x" : 2,
      "name" : "Conv_89",
      "has_batch_norm" : 0,
      "type" : "convolution",
      "n_groups" : 1,
      "pad_t" : 1,
      "stride_y" : 2,
      "has_biases" : 1,
      "C" : 32,
      "bottom" : "409",
      "weights" : {

      },
      "Nx" : 3,
      "pad_mode" : 0,
      "pad_value" : 0,
      "Ny" : 3,
      "n_parallel" : 1
    },
    {
      "alpha" : 0.1666666716337204,
      "bottom" : "321",
      "weights" : {

      },
      "mode" : 6,
      "debug_info" : "Clip_90_scale_0_1",
      "top" : "321_scale_0_1",
      "type" : "activation",
      "name" : "Clip_90_scale_0_1",
      "beta" : 0
    },
    {
      "bottom" : "321_scale_0_1",
      "weights" : {

      },
      "mode" : 7,
      "debug_info" : "Clip_90_clip_0_1",
      "top" : "321_clip_0_1",
      "type" : "activation",
      "name" : "Clip_90_clip_0_1",
      "beta" : 0
    },
    {
      "alpha" : 6,
      "bottom" : "321_clip_0_1",
      "weights" : {

      },
      "mode" : 6,
      "debug_info" : "Clip_90",
      "top" : "322",
      "type" : "activation",
      "name" : "Clip_90",
      "beta" : 0
    },
    {
      "pad_r" : 0,
      "fused_relu" : 0,
      "fused_tanh" : 0,
      "debug_info" : "Conv_91",
      "pad_fill_mode" : 0,
      "pad_b" : 0,
      "pad_l" : 0,
      "top" : "323",
      "blob_weights" : 181,
      "K" : 32,
      "name" : "Conv_91",
      "has_batch_norm" : 0,
      "type" : "convolution",
      "n_groups" : 1,
      "pad_t" : 0,
      "has_biases" : 0,
      "C" : 8,
      "bottom" : "322",
      "weights" : {

      },
      "Nx" : 1,
      "pad_mode" : 0,
      "pad_value" : 0,
      "Ny" : 1,
      "n_parallel" : 1
    },
    {
      "bottom" : "323",
      "weights" : {

      },
      "mode" : 0,
      "nd_axis" : 0,
      "debug_info" : "Flatten_92",
      "top" : "324",
      "type" : "flatten",
      "name" : "Flatten_92"
    },
    {
      "pad_r" : 0,
      "fused_relu" : 0,
      "fused_tanh" : 0,
      "debug_info" : "Conv_93",
      "pad_fill_mode" : 0,
      "pad_b" : 0,
      "pad_l" : 0,
      "top" : "325",
      "blob_weights" : 185,
      "K" : 32,
      "blob_biases" : 183,
      "name" : "Conv_93",
      "has_batch_norm" : 0,
      "type" : "convolution",
      "n_groups" : 1,
      "pad_t" : 0,
      "has_biases" : 1,
      "C" : 128,
      "bottom" : "322",
      "weights" : {

      },
      "Nx" : 7,
      "pad_mode" : 0,
      "pad_value" : 0,
      "Ny" : 7,
      "n_parallel" : 1
    },
    {
      "alpha" : 0.1666666716337204,
      "bottom" : "325",
      "weights" : {

      },
      "mode" : 6,
      "debug_info" : "Clip_94_scale_0_1",
      "top" : "325_scale_0_1",
      "type" : "activation",
      "name" : "Clip_94_scale_0_1",
      "beta" : 0
    },
    {
      "bottom" : "325_scale_0_1",
      "weights" : {

      },
      "mode" : 7,
      "debug_info" : "Clip_94_clip_0_1",
      "top" : "325_clip_0_1",
      "type" : "activation",
      "name" : "Clip_94_clip_0_1",
      "beta" : 0
    },
    {
      "alpha" : 6,
      "bottom" : "325_clip_0_1",
      "weights" : {

      },
      "mode" : 6,
      "debug_info" : "Clip_94",
      "top" : "326",
      "type" : "activation",
      "name" : "Clip_94",
      "beta" : 0
    },
    {
      "bottom" : "326",
      "weights" : {

      },
      "mode" : 0,
      "nd_axis" : 0,
      "debug_info" : "Flatten_95",
      "top" : "327",
      "type" : "flatten",
      "name" : "Flatten_95"
    },
    {
      "weights" : {

      },
      "debug_info" : "Concat_96",
      "top" : "328",
      "type" : "concat",
      "name" : "Concat_96",
      "bottom" : "312,324,327"
    },
    {
      "has_prelu" : 0,
      "top" : "landmark",
      "has_biases" : 1,
      "weights" : {

      },
      "nC" : 176,
      "blob_weights" : 189,
      "type" : "inner_product",
      "has_relu" : 0,
      "attributes" : {
        "is_output" : 1
      },
      "bottom" : "320",
      "debug_info" : "Gemm_97",
      "has_tanh" : 0,
      "blob_biases" : 187,
      "name" : "Gemm_97",
      "nB" : 1304
    },
    {
      "nB" : 1304,
      "top" : "330",
      "has_biases" : 1,
      "weights" : {

      },
      "nC" : 2,
      "blob_weights" : 193,
      "type" : "inner_product",
      "has_relu" : 0,
      "bottom" : "320",
      "blob_biases" : 191,
      "has_tanh" : 0,
      "debug_info" : "Gemm_98",
      "name" : "Gemm_98",
      "has_prelu" : 0
    },
    {
      "has_prelu" : 0,
      "top" : "pose",
      "has_biases" : 1,
      "weights" : {

      },
      "nC" : 6,
      "blob_weights" : 197,
      "type" : "inner_product",
      "has_relu" : 0,
      "attributes" : {
        "is_output" : 1
      },
      "bottom" : "320",
      "debug_info" : "Gemm_99",
      "has_tanh" : 0,
      "blob_biases" : 195,
      "name" : "Gemm_99",
      "nB" : 1304
    },
    {
      "bottom" : "330",
      "weights" : {

      },
      "mode" : 3,
      "debug_info" : "Sigmoid_100",
      "top" : "conf",
      "type" : "activation",
      "name" : "Sigmoid_100",
      "attributes" : {
        "is_output" : 1
      }
    },
    {
      "has_prelu" : 0,
      "top" : "embedding",
      "has_biases" : 1,
      "weights" : {

      },
      "nC" : 110,
      "blob_weights" : 201,
      "type" : "inner_product",
      "has_relu" : 0,
      "attributes" : {
        "is_output" : 1
      },
      "bottom" : "328",
      "debug_info" : "Gemm_101",
      "has_tanh" : 0,
      "blob_biases" : 199,
      "name" : "Gemm_101",
      "nB" : 1304
    }
  ],
  "transform_params" : {
    "input_1" : {
      "bias_a" : 0,
      "bias_g" : -2.0176990032196045,
      "bias_r" : -2.1460177898406982,
      "bias_b" : -1.7964601516723633,
      "center_mean" : 0,
      "is_network_bgr" : 1,
      "scale" : 0.017352074384689331
    }
  },
  "storage" : "model.espresso.weights",
  "metadata_in_weights" : [

  ],
  "properties" : {

  },
  "analyses" : {

  },
  "format_version" : 200
}