{
  "layers" : [
    {
      "pad_r" : 0,
      "fused_relu" : 0,
      "fused_tanh" : 0,
      "debug_info" : "Conv_0",
      "pad_fill_mode" : 0,
      "pad_b" : 0,
      "pad_l" : 0,
      "top" : "224",
      "blob_weights" : 3,
      "K" : 3,
      "blob_biases" : 1,
      "name" : "Conv_0",
      "has_batch_norm" : 0,
      "type" : "convolution",
      "n_groups" : 1,
      "pad_t" : 0,
      "has_biases" : 1,
      "C" : 3,
      "bottom" : "input",
      "weights" : {

      },
      "Nx" : 1,
      "pad_mode" : 0,
      "pad_value" : 0,
      "Ny" : 1,
      "n_parallel" : 1
    },
    {
      "pad_r" : 1,
      "fused_relu" : 1,
      "fused_tanh" : 0,
      "debug_info" : "Conv_1",
      "pad_fill_mode" : 0,
      "pad_b" : 1,
      "pad_l" : 1,
      "top" : "226",
      "blob_weights" : 7,
      "K" : 3,
      "blob_biases" : 5,
      "stride_x" : 2,
      "name" : "Conv_1",
      "has_batch_norm" : 0,
      "type" : "convolution",
      "n_groups" : 1,
      "pad_t" : 1,
      "stride_y" : 2,
      "has_biases" : 1,
      "C" : 16,
      "bottom" : "224",
      "weights" : {

      },
      "Nx" : 3,
      "pad_mode" : 0,
      "pad_value" : 0,
      "Ny" : 3,
      "n_parallel" : 1
    },
    {
      "pad_r" : 1,
      "fused_relu" : 1,
      "fused_tanh" : 0,
      "debug_info" : "Conv_3",
      "pad_fill_mode" : 0,
      "pad_b" : 1,
      "pad_l" : 1,
      "top" : "228",
      "blob_weights" : 11,
      "K" : 16,
      "blob_biases" : 9,
      "stride_x" : 2,
      "name" : "Conv_3",
      "has_batch_norm" : 0,
      "type" : "convolution",
      "n_groups" : 1,
      "pad_t" : 1,
      "stride_y" : 2,
      "has_biases" : 1,
      "C" : 32,
      "bottom" : "226",
      "weights" : {

      },
      "Nx" : 3,
      "pad_mode" : 0,
      "pad_value" : 0,
      "Ny" : 3,
      "n_parallel" : 1
    },
    {
      "pad_r" : 1,
      "fused_relu" : 1,
      "fused_tanh" : 0,
      "debug_info" : "Conv_5",
      "pad_fill_mode" : 0,
      "pad_b" : 1,
      "pad_l" : 1,
      "top" : "230",
      "blob_weights" : 15,
      "K" : 32,
      "blob_biases" : 13,
      "name" : "Conv_5",
      "has_batch_norm" : 0,
      "type" : "convolution",
      "n_groups" : 32,
      "pad_t" : 1,
      "has_biases" : 1,
      "C" : 32,
      "bottom" : "228",
      "weights" : {

      },
      "Nx" : 3,
      "pad_mode" : 0,
      "pad_value" : 0,
      "Ny" : 3,
      "n_parallel" : 1
    },
    {
      "pad_r" : 0,
      "fused_relu" : 1,
      "fused_tanh" : 0,
      "debug_info" : "Conv_7",
      "pad_fill_mode" : 0,
      "pad_b" : 0,
      "pad_l" : 0,
      "top" : "233",
      "blob_weights" : 19,
      "K" : 32,
      "blob_biases" : 17,
      "name" : "Conv_7",
      "has_batch_norm" : 0,
      "type" : "convolution",
      "n_groups" : 1,
      "pad_t" : 0,
      "has_biases" : 1,
      "C" : 32,
      "bottom" : "230",
      "weights" : {

      },
      "Nx" : 1,
      "pad_mode" : 0,
      "pad_value" : 0,
      "Ny" : 1,
      "n_parallel" : 1
    },
    {
      "pad_r" : 1,
      "fused_relu" : 1,
      "fused_tanh" : 0,
      "debug_info" : "Conv_9",
      "pad_fill_mode" : 0,
      "pad_b" : 1,
      "pad_l" : 1,
      "top" : "235",
      "blob_weights" : 23,
      "K" : 32,
      "blob_biases" : 21,
      "name" : "Conv_9",
      "has_batch_norm" : 0,
      "type" : "convolution",
      "n_groups" : 32,
      "pad_t" : 1,
      "has_biases" : 1,
      "C" : 32,
      "bottom" : "233",
      "weights" : {

      },
      "Nx" : 3,
      "pad_mode" : 0,
      "pad_value" : 0,
      "Ny" : 3,
      "n_parallel" : 1
    },
    {
      "pad_r" : 0,
      "fused_relu" : 0,
      "fused_tanh" : 0,
      "debug_info" : "Conv_11",
      "pad_fill_mode" : 0,
      "pad_b" : 0,
      "pad_l" : 0,
      "top" : "388",
      "blob_weights" : 27,
      "K" : 32,
      "blob_biases" : 25,
      "name" : "Conv_11",
      "has_batch_norm" : 0,
      "type" : "convolution",
      "n_groups" : 1,
      "pad_t" : 0,
      "has_biases" : 1,
      "C" : 32,
      "bottom" : "235",
      "weights" : {

      },
      "Nx" : 1,
      "pad_mode" : 0,
      "pad_value" : 0,
      "Ny" : 1,
      "n_parallel" : 1
    },
    {
      "pad_r" : 0,
      "fused_relu" : 0,
      "fused_tanh" : 0,
      "debug_info" : "Conv_12",
      "pad_fill_mode" : 0,
      "pad_b" : 0,
      "pad_l" : 0,
      "top" : "391",
      "blob_weights" : 31,
      "K" : 32,
      "blob_biases" : 29,
      "name" : "Conv_12",
      "has_batch_norm" : 0,
      "type" : "convolution",
      "n_groups" : 1,
      "pad_t" : 0,
      "has_biases" : 1,
      "C" : 32,
      "bottom" : "228",
      "weights" : {

      },
      "Nx" : 1,
      "pad_mode" : 0,
      "pad_value" : 0,
      "Ny" : 1,
      "n_parallel" : 1
    },
    {
      "bottom" : "388,391",
      "alpha" : 1,
      "operation" : 0,
      "weights" : {

      },
      "fused_relu" : 0,
      "debug_info" : "Add_13",
      "top" : "240",
      "type" : "elementwise",
      "name" : "Add_13",
      "beta" : 0
    },
    {
      "bottom" : "240",
      "weights" : {

      },
      "mode" : 0,
      "debug_info" : "Relu_14",
      "top" : "241",
      "type" : "activation",
      "name" : "Relu_14"
    },
    {
      "pad_r" : 1,
      "fused_relu" : 1,
      "fused_tanh" : 0,
      "debug_info" : "Conv_15",
      "pad_fill_mode" : 0,
      "pad_b" : 1,
      "pad_l" : 1,
      "top" : "243",
      "blob_weights" : 35,
      "K" : 32,
      "blob_biases" : 33,
      "name" : "Conv_15",
      "has_batch_norm" : 0,
      "type" : "convolution",
      "n_groups" : 32,
      "pad_t" : 1,
      "has_biases" : 1,
      "C" : 32,
      "bottom" : "241",
      "weights" : {

      },
      "Nx" : 3,
      "pad_mode" : 0,
      "pad_value" : 0,
      "Ny" : 3,
      "n_parallel" : 1
    },
    {
      "pad_r" : 0,
      "fused_relu" : 1,
      "fused_tanh" : 0,
      "debug_info" : "Conv_17",
      "pad_fill_mode" : 0,
      "pad_b" : 0,
      "pad_l" : 0,
      "top" : "246",
      "blob_weights" : 39,
      "K" : 32,
      "blob_biases" : 37,
      "name" : "Conv_17",
      "has_batch_norm" : 0,
      "type" : "convolution",
      "n_groups" : 1,
      "pad_t" : 0,
      "has_biases" : 1,
      "C" : 32,
      "bottom" : "243",
      "weights" : {

      },
      "Nx" : 1,
      "pad_mode" : 0,
      "pad_value" : 0,
      "Ny" : 1,
      "n_parallel" : 1
    },
    {
      "pad_r" : 1,
      "fused_relu" : 1,
      "fused_tanh" : 0,
      "debug_info" : "Conv_19",
      "pad_fill_mode" : 0,
      "pad_b" : 1,
      "pad_l" : 1,
      "top" : "248",
      "blob_weights" : 43,
      "K" : 32,
      "blob_biases" : 41,
      "name" : "Conv_19",
      "has_batch_norm" : 0,
      "type" : "convolution",
      "n_groups" : 32,
      "pad_t" : 1,
      "has_biases" : 1,
      "C" : 32,
      "bottom" : "246",
      "weights" : {

      },
      "Nx" : 3,
      "pad_mode" : 0,
      "pad_value" : 0,
      "Ny" : 3,
      "n_parallel" : 1
    },
    {
      "pad_r" : 0,
      "fused_relu" : 0,
      "fused_tanh" : 0,
      "debug_info" : "Conv_21",
      "pad_fill_mode" : 0,
      "pad_b" : 0,
      "pad_l" : 0,
      "top" : "397",
      "blob_weights" : 47,
      "K" : 32,
      "blob_biases" : 45,
      "name" : "Conv_21",
      "has_batch_norm" : 0,
      "type" : "convolution",
      "n_groups" : 1,
      "pad_t" : 0,
      "has_biases" : 1,
      "C" : 32,
      "bottom" : "248",
      "weights" : {

      },
      "Nx" : 1,
      "pad_mode" : 0,
      "pad_value" : 0,
      "Ny" : 1,
      "n_parallel" : 1
    },
    {
      "pad_r" : 0,
      "fused_relu" : 0,
      "fused_tanh" : 0,
      "debug_info" : "Conv_22",
      "pad_fill_mode" : 0,
      "pad_b" : 0,
      "pad_l" : 0,
      "top" : "400",
      "blob_weights" : 51,
      "K" : 32,
      "blob_biases" : 49,
      "name" : "Conv_22",
      "has_batch_norm" : 0,
      "type" : "convolution",
      "n_groups" : 1,
      "pad_t" : 0,
      "has_biases" : 1,
      "C" : 32,
      "bottom" : "241",
      "weights" : {

      },
      "Nx" : 1,
      "pad_mode" : 0,
      "pad_value" : 0,
      "Ny" : 1,
      "n_parallel" : 1
    },
    {
      "bottom" : "397,400",
      "alpha" : 1,
      "operation" : 0,
      "weights" : {

      },
      "fused_relu" : 0,
      "debug_info" : "Add_23",
      "top" : "253",
      "type" : "elementwise",
      "name" : "Add_23",
      "beta" : 0
    },
    {
      "bottom" : "253",
      "weights" : {

      },
      "mode" : 0,
      "debug_info" : "Relu_24",
      "top" : "254",
      "type" : "activation",
      "name" : "Relu_24"
    },
    {
      "pad_r" : 1,
      "fused_relu" : 1,
      "fused_tanh" : 0,
      "debug_info" : "Conv_25",
      "pad_fill_mode" : 0,
      "pad_b" : 1,
      "pad_l" : 1,
      "top" : "256",
      "blob_weights" : 55,
      "K" : 32,
      "blob_biases" : 53,
      "name" : "Conv_25",
      "has_batch_norm" : 0,
      "type" : "convolution",
      "n_groups" : 32,
      "pad_t" : 1,
      "has_biases" : 1,
      "C" : 32,
      "bottom" : "254",
      "weights" : {

      },
      "Nx" : 3,
      "pad_mode" : 0,
      "pad_value" : 0,
      "Ny" : 3,
      "n_parallel" : 1
    },
    {
      "pad_r" : 0,
      "fused_relu" : 1,
      "fused_tanh" : 0,
      "debug_info" : "Conv_27",
      "pad_fill_mode" : 0,
      "pad_b" : 0,
      "pad_l" : 0,
      "top" : "259",
      "blob_weights" : 59,
      "K" : 32,
      "blob_biases" : 57,
      "name" : "Conv_27",
      "has_batch_norm" : 0,
      "type" : "convolution",
      "n_groups" : 1,
      "pad_t" : 0,
      "has_biases" : 1,
      "C" : 32,
      "bottom" : "256",
      "weights" : {

      },
      "Nx" : 1,
      "pad_mode" : 0,
      "pad_value" : 0,
      "Ny" : 1,
      "n_parallel" : 1
    },
    {
      "pad_r" : 1,
      "fused_relu" : 1,
      "fused_tanh" : 0,
      "debug_info" : "Conv_29",
      "pad_fill_mode" : 0,
      "pad_b" : 1,
      "pad_l" : 1,
      "top" : "261",
      "blob_weights" : 63,
      "K" : 32,
      "blob_biases" : 61,
      "name" : "Conv_29",
      "has_batch_norm" : 0,
      "type" : "convolution",
      "n_groups" : 32,
      "pad_t" : 1,
      "has_biases" : 1,
      "C" : 32,
      "bottom" : "259",
      "weights" : {

      },
      "Nx" : 3,
      "pad_mode" : 0,
      "pad_value" : 0,
      "Ny" : 3,
      "n_parallel" : 1
    },
    {
      "pad_r" : 0,
      "fused_relu" : 0,
      "fused_tanh" : 0,
      "debug_info" : "Conv_31",
      "pad_fill_mode" : 0,
      "pad_b" : 0,
      "pad_l" : 0,
      "top" : "406",
      "blob_weights" : 67,
      "K" : 32,
      "blob_biases" : 65,
      "name" : "Conv_31",
      "has_batch_norm" : 0,
      "type" : "convolution",
      "n_groups" : 1,
      "pad_t" : 0,
      "has_biases" : 1,
      "C" : 32,
      "bottom" : "261",
      "weights" : {

      },
      "Nx" : 1,
      "pad_mode" : 0,
      "pad_value" : 0,
      "Ny" : 1,
      "n_parallel" : 1
    },
    {
      "pad_r" : 0,
      "fused_relu" : 0,
      "fused_tanh" : 0,
      "debug_info" : "Conv_32",
      "pad_fill_mode" : 0,
      "pad_b" : 0,
      "pad_l" : 0,
      "top" : "409",
      "blob_weights" : 71,
      "K" : 32,
      "blob_biases" : 69,
      "name" : "Conv_32",
      "has_batch_norm" : 0,
      "type" : "convolution",
      "n_groups" : 1,
      "pad_t" : 0,
      "has_biases" : 1,
      "C" : 32,
      "bottom" : "254",
      "weights" : {

      },
      "Nx" : 1,
      "pad_mode" : 0,
      "pad_value" : 0,
      "Ny" : 1,
      "n_parallel" : 1
    },
    {
      "bottom" : "406,409",
      "alpha" : 1,
      "operation" : 0,
      "weights" : {

      },
      "fused_relu" : 0,
      "debug_info" : "Add_33",
      "top" : "266",
      "type" : "elementwise",
      "name" : "Add_33",
      "beta" : 0
    },
    {
      "bottom" : "266",
      "weights" : {

      },
      "mode" : 0,
      "debug_info" : "Relu_34",
      "top" : "267",
      "type" : "activation",
      "name" : "Relu_34"
    },
    {
      "pad_r" : 1,
      "fused_relu" : 1,
      "fused_tanh" : 0,
      "debug_info" : "Conv_35",
      "pad_fill_mode" : 0,
      "pad_b" : 1,
      "pad_l" : 1,
      "top" : "269",
      "blob_weights" : 75,
      "K" : 32,
      "blob_biases" : 73,
      "stride_x" : 2,
      "name" : "Conv_35",
      "has_batch_norm" : 0,
      "type" : "convolution",
      "n_groups" : 1,
      "pad_t" : 1,
      "stride_y" : 2,
      "has_biases" : 1,
      "C" : 64,
      "bottom" : "267",
      "weights" : {

      },
      "Nx" : 3,
      "pad_mode" : 0,
      "pad_value" : 0,
      "Ny" : 3,
      "n_parallel" : 1
    },
    {
      "pad_r" : 0,
      "fused_relu" : 1,
      "fused_tanh" : 0,
      "debug_info" : "Conv_37",
      "pad_fill_mode" : 0,
      "pad_b" : 1,
      "pad_l" : 0,
      "top" : "271",
      "blob_weights" : 79,
      "K" : 64,
      "blob_biases" : 77,
      "name" : "Conv_37",
      "has_batch_norm" : 0,
      "type" : "convolution",
      "n_groups" : 1,
      "pad_t" : 1,
      "has_biases" : 1,
      "C" : 64,
      "bottom" : "269",
      "weights" : {

      },
      "Nx" : 1,
      "pad_mode" : 0,
      "pad_value" : 0,
      "Ny" : 3,
      "n_parallel" : 1
    },
    {
      "pad_r" : 1,
      "fused_relu" : 1,
      "fused_tanh" : 0,
      "debug_info" : "Conv_39",
      "pad_fill_mode" : 0,
      "pad_b" : 0,
      "pad_l" : 1,
      "top" : "274",
      "blob_weights" : 83,
      "K" : 64,
      "blob_biases" : 81,
      "name" : "Conv_39",
      "has_batch_norm" : 0,
      "type" : "convolution",
      "n_groups" : 1,
      "pad_t" : 0,
      "has_biases" : 1,
      "C" : 64,
      "bottom" : "271",
      "weights" : {

      },
      "Nx" : 3,
      "pad_mode" : 0,
      "pad_value" : 0,
      "Ny" : 1,
      "n_parallel" : 1
    },
    {
      "pad_r" : 2,
      "fused_relu" : 1,
      "fused_tanh" : 0,
      "debug_info" : "Conv_41",
      "pad_fill_mode" : 0,
      "pad_b" : 2,
      "pad_l" : 2,
      "top" : "276",
      "blob_weights" : 87,
      "K" : 64,
      "blob_biases" : 85,
      "name" : "Conv_41",
      "has_batch_norm" : 0,
      "type" : "convolution",
      "n_groups" : 64,
      "pad_t" : 2,
      "has_biases" : 1,
      "C" : 64,
      "bottom" : "274",
      "weights" : {

      },
      "Nx" : 3,
      "pad_mode" : 0,
      "dilation_x" : 2,
      "pad_value" : 0,
      "Ny" : 3,
      "n_parallel" : 1,
      "dilation_y" : 2
    },
    {
      "pad_r" : 0,
      "fused_relu" : 0,
      "fused_tanh" : 0,
      "debug_info" : "Conv_43",
      "pad_fill_mode" : 0,
      "pad_b" : 0,
      "pad_l" : 0,
      "top" : "415",
      "blob_weights" : 91,
      "K" : 64,
      "blob_biases" : 89,
      "name" : "Conv_43",
      "has_batch_norm" : 0,
      "type" : "convolution",
      "n_groups" : 1,
      "pad_t" : 0,
      "has_biases" : 1,
      "C" : 64,
      "bottom" : "276",
      "weights" : {

      },
      "Nx" : 1,
      "pad_mode" : 0,
      "pad_value" : 0,
      "Ny" : 1,
      "n_parallel" : 1
    },
    {
      "pad_r" : 0,
      "fused_relu" : 0,
      "fused_tanh" : 0,
      "debug_info" : "Conv_44",
      "pad_fill_mode" : 0,
      "pad_b" : 0,
      "pad_l" : 0,
      "top" : "418",
      "blob_weights" : 95,
      "K" : 64,
      "blob_biases" : 93,
      "name" : "Conv_44",
      "has_batch_norm" : 0,
      "type" : "convolution",
      "n_groups" : 1,
      "pad_t" : 0,
      "has_biases" : 1,
      "C" : 64,
      "bottom" : "269",
      "weights" : {

      },
      "Nx" : 1,
      "pad_mode" : 0,
      "pad_value" : 0,
      "Ny" : 1,
      "n_parallel" : 1
    },
    {
      "bottom" : "415,418",
      "alpha" : 1,
      "operation" : 0,
      "weights" : {

      },
      "fused_relu" : 0,
      "debug_info" : "Add_45",
      "top" : "281",
      "type" : "elementwise",
      "name" : "Add_45",
      "beta" : 0
    },
    {
      "bottom" : "281",
      "weights" : {

      },
      "mode" : 0,
      "debug_info" : "Relu_46",
      "top" : "282",
      "type" : "activation",
      "name" : "Relu_46"
    },
    {
      "pad_r" : 0,
      "fused_relu" : 1,
      "fused_tanh" : 0,
      "debug_info" : "Conv_47",
      "pad_fill_mode" : 0,
      "pad_b" : 1,
      "pad_l" : 0,
      "top" : "284",
      "blob_weights" : 99,
      "K" : 64,
      "blob_biases" : 97,
      "name" : "Conv_47",
      "has_batch_norm" : 0,
      "type" : "convolution",
      "n_groups" : 1,
      "pad_t" : 1,
      "has_biases" : 1,
      "C" : 64,
      "bottom" : "282",
      "weights" : {

      },
      "Nx" : 1,
      "pad_mode" : 0,
      "pad_value" : 0,
      "Ny" : 3,
      "n_parallel" : 1
    },
    {
      "pad_r" : 1,
      "fused_relu" : 1,
      "fused_tanh" : 0,
      "debug_info" : "Conv_49",
      "pad_fill_mode" : 0,
      "pad_b" : 0,
      "pad_l" : 1,
      "top" : "287",
      "blob_weights" : 103,
      "K" : 64,
      "blob_biases" : 101,
      "name" : "Conv_49",
      "has_batch_norm" : 0,
      "type" : "convolution",
      "n_groups" : 1,
      "pad_t" : 0,
      "has_biases" : 1,
      "C" : 64,
      "bottom" : "284",
      "weights" : {

      },
      "Nx" : 3,
      "pad_mode" : 0,
      "pad_value" : 0,
      "Ny" : 1,
      "n_parallel" : 1
    },
    {
      "pad_r" : 4,
      "fused_relu" : 1,
      "fused_tanh" : 0,
      "debug_info" : "Conv_51",
      "pad_fill_mode" : 0,
      "pad_b" : 4,
      "pad_l" : 4,
      "top" : "289",
      "blob_weights" : 107,
      "K" : 64,
      "blob_biases" : 105,
      "name" : "Conv_51",
      "has_batch_norm" : 0,
      "type" : "convolution",
      "n_groups" : 64,
      "pad_t" : 4,
      "has_biases" : 1,
      "C" : 64,
      "bottom" : "287",
      "weights" : {

      },
      "Nx" : 3,
      "pad_mode" : 0,
      "dilation_x" : 4,
      "pad_value" : 0,
      "Ny" : 3,
      "n_parallel" : 1,
      "dilation_y" : 4
    },
    {
      "pad_r" : 0,
      "fused_relu" : 0,
      "fused_tanh" : 0,
      "debug_info" : "Conv_53",
      "pad_fill_mode" : 0,
      "pad_b" : 0,
      "pad_l" : 0,
      "top" : "424",
      "blob_weights" : 111,
      "K" : 64,
      "blob_biases" : 109,
      "name" : "Conv_53",
      "has_batch_norm" : 0,
      "type" : "convolution",
      "n_groups" : 1,
      "pad_t" : 0,
      "has_biases" : 1,
      "C" : 64,
      "bottom" : "289",
      "weights" : {

      },
      "Nx" : 1,
      "pad_mode" : 0,
      "pad_value" : 0,
      "Ny" : 1,
      "n_parallel" : 1
    },
    {
      "pad_r" : 0,
      "fused_relu" : 0,
      "fused_tanh" : 0,
      "debug_info" : "Conv_54",
      "pad_fill_mode" : 0,
      "pad_b" : 0,
      "pad_l" : 0,
      "top" : "427",
      "blob_weights" : 115,
      "K" : 64,
      "blob_biases" : 113,
      "name" : "Conv_54",
      "has_batch_norm" : 0,
      "type" : "convolution",
      "n_groups" : 1,
      "pad_t" : 0,
      "has_biases" : 1,
      "C" : 64,
      "bottom" : "282",
      "weights" : {

      },
      "Nx" : 1,
      "pad_mode" : 0,
      "pad_value" : 0,
      "Ny" : 1,
      "n_parallel" : 1
    },
    {
      "bottom" : "424,427",
      "alpha" : 1,
      "operation" : 0,
      "weights" : {

      },
      "fused_relu" : 0,
      "debug_info" : "Add_55",
      "top" : "294",
      "type" : "elementwise",
      "name" : "Add_55",
      "beta" : 0
    },
    {
      "bottom" : "294",
      "weights" : {

      },
      "mode" : 0,
      "debug_info" : "Relu_56",
      "top" : "295",
      "type" : "activation",
      "name" : "Relu_56"
    },
    {
      "pad_r" : 0,
      "fused_relu" : 1,
      "fused_tanh" : 0,
      "debug_info" : "Conv_57",
      "pad_fill_mode" : 0,
      "pad_b" : 1,
      "pad_l" : 0,
      "top" : "297",
      "blob_weights" : 119,
      "K" : 64,
      "blob_biases" : 117,
      "name" : "Conv_57",
      "has_batch_norm" : 0,
      "type" : "convolution",
      "n_groups" : 1,
      "pad_t" : 1,
      "has_biases" : 1,
      "C" : 64,
      "bottom" : "295",
      "weights" : {

      },
      "Nx" : 1,
      "pad_mode" : 0,
      "pad_value" : 0,
      "Ny" : 3,
      "n_parallel" : 1
    },
    {
      "pad_r" : 1,
      "fused_relu" : 1,
      "fused_tanh" : 0,
      "debug_info" : "Conv_59",
      "pad_fill_mode" : 0,
      "pad_b" : 0,
      "pad_l" : 1,
      "top" : "300",
      "blob_weights" : 123,
      "K" : 64,
      "blob_biases" : 121,
      "name" : "Conv_59",
      "has_batch_norm" : 0,
      "type" : "convolution",
      "n_groups" : 1,
      "pad_t" : 0,
      "has_biases" : 1,
      "C" : 64,
      "bottom" : "297",
      "weights" : {

      },
      "Nx" : 3,
      "pad_mode" : 0,
      "pad_value" : 0,
      "Ny" : 1,
      "n_parallel" : 1
    },
    {
      "pad_r" : 6,
      "fused_relu" : 1,
      "fused_tanh" : 0,
      "debug_info" : "Conv_61",
      "pad_fill_mode" : 0,
      "pad_b" : 6,
      "pad_l" : 6,
      "top" : "302",
      "blob_weights" : 127,
      "K" : 64,
      "blob_biases" : 125,
      "name" : "Conv_61",
      "has_batch_norm" : 0,
      "type" : "convolution",
      "n_groups" : 64,
      "pad_t" : 6,
      "has_biases" : 1,
      "C" : 64,
      "bottom" : "300",
      "weights" : {

      },
      "Nx" : 3,
      "pad_mode" : 0,
      "dilation_x" : 6,
      "pad_value" : 0,
      "Ny" : 3,
      "n_parallel" : 1,
      "dilation_y" : 6
    },
    {
      "pad_r" : 0,
      "fused_relu" : 0,
      "fused_tanh" : 0,
      "debug_info" : "Conv_63",
      "pad_fill_mode" : 0,
      "pad_b" : 0,
      "pad_l" : 0,
      "top" : "433",
      "blob_weights" : 131,
      "K" : 64,
      "blob_biases" : 129,
      "name" : "Conv_63",
      "has_batch_norm" : 0,
      "type" : "convolution",
      "n_groups" : 1,
      "pad_t" : 0,
      "has_biases" : 1,
      "C" : 64,
      "bottom" : "302",
      "weights" : {

      },
      "Nx" : 1,
      "pad_mode" : 0,
      "pad_value" : 0,
      "Ny" : 1,
      "n_parallel" : 1
    },
    {
      "pad_r" : 0,
      "fused_relu" : 0,
      "fused_tanh" : 0,
      "debug_info" : "Conv_64",
      "pad_fill_mode" : 0,
      "pad_b" : 0,
      "pad_l" : 0,
      "top" : "436",
      "blob_weights" : 135,
      "K" : 64,
      "blob_biases" : 133,
      "name" : "Conv_64",
      "has_batch_norm" : 0,
      "type" : "convolution",
      "n_groups" : 1,
      "pad_t" : 0,
      "has_biases" : 1,
      "C" : 64,
      "bottom" : "295",
      "weights" : {

      },
      "Nx" : 1,
      "pad_mode" : 0,
      "pad_value" : 0,
      "Ny" : 1,
      "n_parallel" : 1
    },
    {
      "bottom" : "433,436",
      "alpha" : 1,
      "operation" : 0,
      "weights" : {

      },
      "fused_relu" : 0,
      "debug_info" : "Add_65",
      "top" : "307",
      "type" : "elementwise",
      "name" : "Add_65",
      "beta" : 0
    },
    {
      "bottom" : "307",
      "weights" : {

      },
      "mode" : 0,
      "debug_info" : "Relu_66",
      "top" : "308",
      "type" : "activation",
      "name" : "Relu_66"
    },
    {
      "pad_r" : 0,
      "fused_relu" : 1,
      "fused_tanh" : 0,
      "debug_info" : "Conv_67",
      "pad_fill_mode" : 0,
      "pad_b" : 1,
      "pad_l" : 0,
      "top" : "310",
      "blob_weights" : 139,
      "K" : 64,
      "blob_biases" : 137,
      "name" : "Conv_67",
      "has_batch_norm" : 0,
      "type" : "convolution",
      "n_groups" : 1,
      "pad_t" : 1,
      "has_biases" : 1,
      "C" : 64,
      "bottom" : "308",
      "weights" : {

      },
      "Nx" : 1,
      "pad_mode" : 0,
      "pad_value" : 0,
      "Ny" : 3,
      "n_parallel" : 1
    },
    {
      "pad_r" : 1,
      "fused_relu" : 1,
      "fused_tanh" : 0,
      "debug_info" : "Conv_69",
      "pad_fill_mode" : 0,
      "pad_b" : 0,
      "pad_l" : 1,
      "top" : "313",
      "blob_weights" : 143,
      "K" : 64,
      "blob_biases" : 141,
      "name" : "Conv_69",
      "has_batch_norm" : 0,
      "type" : "convolution",
      "n_groups" : 1,
      "pad_t" : 0,
      "has_biases" : 1,
      "C" : 64,
      "bottom" : "310",
      "weights" : {

      },
      "Nx" : 3,
      "pad_mode" : 0,
      "pad_value" : 0,
      "Ny" : 1,
      "n_parallel" : 1
    },
    {
      "pad_r" : 2,
      "fused_relu" : 1,
      "fused_tanh" : 0,
      "debug_info" : "Conv_71",
      "pad_fill_mode" : 0,
      "pad_b" : 2,
      "pad_l" : 2,
      "top" : "315",
      "blob_weights" : 147,
      "K" : 64,
      "blob_biases" : 145,
      "name" : "Conv_71",
      "has_batch_norm" : 0,
      "type" : "convolution",
      "n_groups" : 64,
      "pad_t" : 2,
      "has_biases" : 1,
      "C" : 64,
      "bottom" : "313",
      "weights" : {

      },
      "Nx" : 3,
      "pad_mode" : 0,
      "dilation_x" : 2,
      "pad_value" : 0,
      "Ny" : 3,
      "n_parallel" : 1,
      "dilation_y" : 2
    },
    {
      "pad_r" : 0,
      "fused_relu" : 0,
      "fused_tanh" : 0,
      "debug_info" : "Conv_73",
      "pad_fill_mode" : 0,
      "pad_b" : 0,
      "pad_l" : 0,
      "top" : "442",
      "blob_weights" : 151,
      "K" : 64,
      "blob_biases" : 149,
      "name" : "Conv_73",
      "has_batch_norm" : 0,
      "type" : "convolution",
      "n_groups" : 1,
      "pad_t" : 0,
      "has_biases" : 1,
      "C" : 64,
      "bottom" : "315",
      "weights" : {

      },
      "Nx" : 1,
      "pad_mode" : 0,
      "pad_value" : 0,
      "Ny" : 1,
      "n_parallel" : 1
    },
    {
      "pad_r" : 0,
      "fused_relu" : 0,
      "fused_tanh" : 0,
      "debug_info" : "Conv_74",
      "pad_fill_mode" : 0,
      "pad_b" : 0,
      "pad_l" : 0,
      "top" : "445",
      "blob_weights" : 155,
      "K" : 64,
      "blob_biases" : 153,
      "name" : "Conv_74",
      "has_batch_norm" : 0,
      "type" : "convolution",
      "n_groups" : 1,
      "pad_t" : 0,
      "has_biases" : 1,
      "C" : 64,
      "bottom" : "308",
      "weights" : {

      },
      "Nx" : 1,
      "pad_mode" : 0,
      "pad_value" : 0,
      "Ny" : 1,
      "n_parallel" : 1
    },
    {
      "bottom" : "442,445",
      "alpha" : 1,
      "operation" : 0,
      "weights" : {

      },
      "fused_relu" : 0,
      "debug_info" : "Add_75",
      "top" : "320",
      "type" : "elementwise",
      "name" : "Add_75",
      "beta" : 0
    },
    {
      "bottom" : "320",
      "weights" : {

      },
      "mode" : 0,
      "debug_info" : "Relu_76",
      "top" : "321",
      "type" : "activation",
      "name" : "Relu_76"
    },
    {
      "pad_r" : 0,
      "fused_relu" : 1,
      "fused_tanh" : 0,
      "debug_info" : "Conv_77",
      "pad_fill_mode" : 0,
      "pad_b" : 1,
      "pad_l" : 0,
      "top" : "323",
      "blob_weights" : 159,
      "K" : 64,
      "blob_biases" : 157,
      "name" : "Conv_77",
      "has_batch_norm" : 0,
      "type" : "convolution",
      "n_groups" : 1,
      "pad_t" : 1,
      "has_biases" : 1,
      "C" : 64,
      "bottom" : "321",
      "weights" : {

      },
      "Nx" : 1,
      "pad_mode" : 0,
      "pad_value" : 0,
      "Ny" : 3,
      "n_parallel" : 1
    },
    {
      "pad_r" : 1,
      "fused_relu" : 1,
      "fused_tanh" : 0,
      "debug_info" : "Conv_79",
      "pad_fill_mode" : 0,
      "pad_b" : 0,
      "pad_l" : 1,
      "top" : "326",
      "blob_weights" : 163,
      "K" : 64,
      "blob_biases" : 161,
      "name" : "Conv_79",
      "has_batch_norm" : 0,
      "type" : "convolution",
      "n_groups" : 1,
      "pad_t" : 0,
      "has_biases" : 1,
      "C" : 64,
      "bottom" : "323",
      "weights" : {

      },
      "Nx" : 3,
      "pad_mode" : 0,
      "pad_value" : 0,
      "Ny" : 1,
      "n_parallel" : 1
    },
    {
      "pad_r" : 4,
      "fused_relu" : 1,
      "fused_tanh" : 0,
      "debug_info" : "Conv_81",
      "pad_fill_mode" : 0,
      "pad_b" : 4,
      "pad_l" : 4,
      "top" : "328",
      "blob_weights" : 167,
      "K" : 64,
      "blob_biases" : 165,
      "name" : "Conv_81",
      "has_batch_norm" : 0,
      "type" : "convolution",
      "n_groups" : 64,
      "pad_t" : 4,
      "has_biases" : 1,
      "C" : 64,
      "bottom" : "326",
      "weights" : {

      },
      "Nx" : 3,
      "pad_mode" : 0,
      "dilation_x" : 4,
      "pad_value" : 0,
      "Ny" : 3,
      "n_parallel" : 1,
      "dilation_y" : 4
    },
    {
      "pad_r" : 0,
      "fused_relu" : 0,
      "fused_tanh" : 0,
      "debug_info" : "Conv_83",
      "pad_fill_mode" : 0,
      "pad_b" : 0,
      "pad_l" : 0,
      "top" : "451",
      "blob_weights" : 171,
      "K" : 64,
      "blob_biases" : 169,
      "name" : "Conv_83",
      "has_batch_norm" : 0,
      "type" : "convolution",
      "n_groups" : 1,
      "pad_t" : 0,
      "has_biases" : 1,
      "C" : 64,
      "bottom" : "328",
      "weights" : {

      },
      "Nx" : 1,
      "pad_mode" : 0,
      "pad_value" : 0,
      "Ny" : 1,
      "n_parallel" : 1
    },
    {
      "pad_r" : 0,
      "fused_relu" : 0,
      "fused_tanh" : 0,
      "debug_info" : "Conv_84",
      "pad_fill_mode" : 0,
      "pad_b" : 0,
      "pad_l" : 0,
      "top" : "454",
      "blob_weights" : 175,
      "K" : 64,
      "blob_biases" : 173,
      "name" : "Conv_84",
      "has_batch_norm" : 0,
      "type" : "convolution",
      "n_groups" : 1,
      "pad_t" : 0,
      "has_biases" : 1,
      "C" : 64,
      "bottom" : "321",
      "weights" : {

      },
      "Nx" : 1,
      "pad_mode" : 0,
      "pad_value" : 0,
      "Ny" : 1,
      "n_parallel" : 1
    },
    {
      "bottom" : "451,454",
      "alpha" : 1,
      "operation" : 0,
      "weights" : {

      },
      "fused_relu" : 0,
      "debug_info" : "Add_85",
      "top" : "333",
      "type" : "elementwise",
      "name" : "Add_85",
      "beta" : 0
    },
    {
      "bottom" : "333",
      "weights" : {

      },
      "mode" : 0,
      "debug_info" : "Relu_86",
      "top" : "334",
      "type" : "activation",
      "name" : "Relu_86"
    },
    {
      "pad_r" : 0,
      "fused_relu" : 1,
      "fused_tanh" : 0,
      "debug_info" : "Conv_87",
      "pad_fill_mode" : 0,
      "pad_b" : 1,
      "pad_l" : 0,
      "top" : "336",
      "blob_weights" : 179,
      "K" : 64,
      "blob_biases" : 177,
      "name" : "Conv_87",
      "has_batch_norm" : 0,
      "type" : "convolution",
      "n_groups" : 1,
      "pad_t" : 1,
      "has_biases" : 1,
      "C" : 64,
      "bottom" : "334",
      "weights" : {

      },
      "Nx" : 1,
      "pad_mode" : 0,
      "pad_value" : 0,
      "Ny" : 3,
      "n_parallel" : 1
    },
    {
      "pad_r" : 1,
      "fused_relu" : 1,
      "fused_tanh" : 0,
      "debug_info" : "Conv_89",
      "pad_fill_mode" : 0,
      "pad_b" : 0,
      "pad_l" : 1,
      "top" : "339",
      "blob_weights" : 183,
      "K" : 64,
      "blob_biases" : 181,
      "name" : "Conv_89",
      "has_batch_norm" : 0,
      "type" : "convolution",
      "n_groups" : 1,
      "pad_t" : 0,
      "has_biases" : 1,
      "C" : 64,
      "bottom" : "336",
      "weights" : {

      },
      "Nx" : 3,
      "pad_mode" : 0,
      "pad_value" : 0,
      "Ny" : 1,
      "n_parallel" : 1
    },
    {
      "pad_r" : 6,
      "fused_relu" : 1,
      "fused_tanh" : 0,
      "debug_info" : "Conv_91",
      "pad_fill_mode" : 0,
      "pad_b" : 6,
      "pad_l" : 6,
      "top" : "341",
      "blob_weights" : 187,
      "K" : 64,
      "blob_biases" : 185,
      "name" : "Conv_91",
      "has_batch_norm" : 0,
      "type" : "convolution",
      "n_groups" : 64,
      "pad_t" : 6,
      "has_biases" : 1,
      "C" : 64,
      "bottom" : "339",
      "weights" : {

      },
      "Nx" : 3,
      "pad_mode" : 0,
      "dilation_x" : 6,
      "pad_value" : 0,
      "Ny" : 3,
      "n_parallel" : 1,
      "dilation_y" : 6
    },
    {
      "pad_r" : 0,
      "fused_relu" : 0,
      "fused_tanh" : 0,
      "debug_info" : "Conv_93",
      "pad_fill_mode" : 0,
      "pad_b" : 0,
      "pad_l" : 0,
      "top" : "460",
      "blob_weights" : 191,
      "K" : 64,
      "blob_biases" : 189,
      "name" : "Conv_93",
      "has_batch_norm" : 0,
      "type" : "convolution",
      "n_groups" : 1,
      "pad_t" : 0,
      "has_biases" : 1,
      "C" : 64,
      "bottom" : "341",
      "weights" : {

      },
      "Nx" : 1,
      "pad_mode" : 0,
      "pad_value" : 0,
      "Ny" : 1,
      "n_parallel" : 1
    },
    {
      "pad_r" : 0,
      "fused_relu" : 0,
      "fused_tanh" : 0,
      "debug_info" : "Conv_94",
      "pad_fill_mode" : 0,
      "pad_b" : 0,
      "pad_l" : 0,
      "top" : "463",
      "blob_weights" : 195,
      "K" : 64,
      "blob_biases" : 193,
      "name" : "Conv_94",
      "has_batch_norm" : 0,
      "type" : "convolution",
      "n_groups" : 1,
      "pad_t" : 0,
      "has_biases" : 1,
      "C" : 64,
      "bottom" : "334",
      "weights" : {

      },
      "Nx" : 1,
      "pad_mode" : 0,
      "pad_value" : 0,
      "Ny" : 1,
      "n_parallel" : 1
    },
    {
      "bottom" : "460,463",
      "alpha" : 1,
      "operation" : 0,
      "weights" : {

      },
      "fused_relu" : 0,
      "debug_info" : "Add_95",
      "top" : "346",
      "type" : "elementwise",
      "name" : "Add_95",
      "beta" : 0
    },
    {
      "bottom" : "346",
      "weights" : {

      },
      "mode" : 0,
      "debug_info" : "Relu_96",
      "top" : "347",
      "type" : "activation",
      "name" : "Relu_96"
    },
    {
      "pad_r" : 0,
      "fused_relu" : 0,
      "fused_tanh" : 0,
      "debug_info" : "Conv_97",
      "pad_fill_mode" : 0,
      "pad_b" : 0,
      "pad_l" : 0,
      "top" : "348",
      "blob_weights" : 199,
      "K" : 64,
      "blob_biases" : 197,
      "name" : "Conv_97",
      "has_batch_norm" : 0,
      "type" : "convolution",
      "n_groups" : 1,
      "pad_t" : 0,
      "has_biases" : 1,
      "C" : 1,
      "bottom" : "347",
      "weights" : {

      },
      "Nx" : 1,
      "pad_mode" : 0,
      "pad_value" : 0,
      "Ny" : 1,
      "n_parallel" : 1
    },
    {
      "pad_r" : 0,
      "fused_relu" : 0,
      "fused_tanh" : 0,
      "debug_info" : "Conv_98",
      "pad_fill_mode" : 0,
      "pad_b" : 0,
      "pad_l" : 0,
      "top" : "349",
      "blob_weights" : 201,
      "K" : 1,
      "name" : "Conv_98",
      "has_batch_norm" : 0,
      "type" : "convolution",
      "n_groups" : 1,
      "pad_t" : 0,
      "has_biases" : 0,
      "C" : 2,
      "bottom" : "348",
      "weights" : {

      },
      "Nx" : 1,
      "pad_mode" : 0,
      "pad_value" : 0,
      "Ny" : 1,
      "n_parallel" : 1
    },
    {
      "pad_r" : 0,
      "fused_relu" : 0,
      "fused_tanh" : 0,
      "debug_info" : "ConvTranspose_99",
      "pad_fill_mode" : 0,
      "pad_b" : 0,
      "pad_l" : 0,
      "top" : "350_conv_tranpose_post_crop",
      "blob_weights" : 203,
      "K" : 2,
      "stride_x" : 8,
      "name" : "ConvTranspose_99",
      "has_batch_norm" : 0,
      "type" : "deconvolution",
      "n_groups" : 2,
      "pad_t" : 0,
      "hint_fallback_from_metal" : 1,
      "stride_y" : 8,
      "has_biases" : 0,
      "C" : 2,
      "bottom" : "349",
      "weights" : {

      },
      "Nx" : 16,
      "pad_mode" : 0,
      "pad_value" : 0,
      "Ny" : 16,
      "n_parallel" : 1
    },
    {
      "bottom" : "350_conv_tranpose_post_crop",
      "t" : 4,
      "weights" : {

      },
      "l" : 4,
      "debug_info" : "ConvTranspose_99_post_crop",
      "r" : 4,
      "top" : "350",
      "type" : "crop",
      "name" : "ConvTranspose_99_post_crop",
      "b" : 4
    },
    {
      "bottom" : "350",
      "weights" : {

      },
      "mode" : 3,
      "debug_info" : "Sigmoid_100",
      "top" : "output",
      "type" : "activation",
      "name" : "Sigmoid_100",
      "attributes" : {
        "is_output" : 1
      }
    },
    {
      "pad_r" : 0,
      "fused_relu" : 1,
      "fused_tanh" : 0,
      "debug_info" : "Conv_101",
      "pad_fill_mode" : 0,
      "pad_b" : 0,
      "pad_l" : 0,
      "top" : "354",
      "blob_weights" : 207,
      "K" : 64,
      "blob_biases" : 205,
      "name" : "Conv_101",
      "has_batch_norm" : 0,
      "type" : "convolution",
      "n_groups" : 1,
      "pad_t" : 0,
      "has_biases" : 1,
      "C" : 8,
      "bottom" : "347",
      "weights" : {

      },
      "Nx" : 1,
      "pad_mode" : 0,
      "pad_value" : 0,
      "Ny" : 1,
      "n_parallel" : 1
    },
    {
      "name" : "Pad_103",
      "weights" : {

      },
      "pad_pad_mode" : 0,
      "pad_t" : 0,
      "pad_r" : 0,
      "pad_b" : 0,
      "type" : "general_padding",
      "pad_fill_mode" : 0,
      "bottom" : "354",
      "pad_l" : 0,
      "debug_info" : "Pad_103",
      "pad_value" : 0,
      "top" : "356"
    },
    {
      "pad_r" : 0,
      "debug_info" : "AveragePool_105",
      "pad_fill_mode" : 0,
      "pad_b" : 0,
      "pad_l" : 0,
      "size_x" : 32,
      "top" : "358",
      "top_shape_style" : 0,
      "stride_x" : 32,
      "avg_or_max" : 0,
      "average_count_exclude_padding" : 0,
      "type" : "pool",
      "name" : "AveragePool_105",
      "pad_t" : 0,
      "stride_y" : 18,
      "bottom" : "356",
      "weights" : {

      },
      "pad_mode" : 0,
      "size_y" : 18,
      "pad_value" : 0
    },
    {
      "bottom" : "358",
      "weights" : {

      },
      "mode" : 0,
      "nd_axis" : 0,
      "debug_info" : "Reshape_106",
      "top" : "363",
      "type" : "flatten",
      "name" : "Reshape_106"
    },
    {
      "name" : "Pad_107",
      "weights" : {

      },
      "pad_pad_mode" : 0,
      "pad_t" : 0,
      "pad_r" : 0,
      "pad_b" : 0,
      "type" : "general_padding",
      "pad_fill_mode" : 0,
      "bottom" : "354",
      "pad_l" : 0,
      "debug_info" : "Pad_107",
      "pad_value" : 0,
      "top" : "364"
    },
    {
      "pad_r" : 0,
      "debug_info" : "AveragePool_109",
      "pad_fill_mode" : 0,
      "pad_b" : 0,
      "pad_l" : 0,
      "size_x" : 16,
      "top" : "366",
      "top_shape_style" : 0,
      "stride_x" : 16,
      "avg_or_max" : 0,
      "average_count_exclude_padding" : 0,
      "type" : "pool",
      "name" : "AveragePool_109",
      "pad_t" : 0,
      "stride_y" : 9,
      "bottom" : "364",
      "weights" : {

      },
      "pad_mode" : 0,
      "size_y" : 9,
      "pad_value" : 0
    },
    {
      "bottom" : "366",
      "weights" : {

      },
      "mode" : 0,
      "nd_axis" : 0,
      "debug_info" : "Reshape_110",
      "top" : "371",
      "type" : "flatten",
      "name" : "Reshape_110"
    },
    {
      "weights" : {

      },
      "debug_info" : "Concat_111",
      "top" : "372__tmp__identity__",
      "type" : "concat",
      "name" : "Concat_111",
      "bottom" : "363,371"
    },
    {
      "bottom" : "372__tmp__identity__",
      "weights" : {

      },
      "mode" : 6,
      "debug_info" : "Concat_111",
      "top" : "372",
      "type" : "activation",
      "name" : "Concat_111__tmp__identity__",
      "beta" : 0
    },
    {
      "name" : "Pad_112",
      "weights" : {

      },
      "pad_pad_mode" : 0,
      "pad_t" : 1,
      "pad_r" : 0,
      "pad_b" : 1,
      "type" : "general_padding",
      "pad_fill_mode" : 0,
      "bottom" : "354",
      "pad_l" : 0,
      "debug_info" : "Pad_112",
      "pad_value" : 0,
      "top" : "373"
    },
    {
      "pad_r" : 0,
      "debug_info" : "AveragePool_114",
      "pad_fill_mode" : 0,
      "pad_b" : 0,
      "pad_l" : 0,
      "size_x" : 8,
      "top" : "375",
      "top_shape_style" : 0,
      "stride_x" : 8,
      "avg_or_max" : 0,
      "average_count_exclude_padding" : 0,
      "type" : "pool",
      "name" : "AveragePool_114",
      "pad_t" : 0,
      "stride_y" : 5,
      "bottom" : "373",
      "weights" : {

      },
      "pad_mode" : 0,
      "size_y" : 5,
      "pad_value" : 0
    },
    {
      "bottom" : "375",
      "weights" : {

      },
      "mode" : 0,
      "nd_axis" : 0,
      "debug_info" : "Reshape_115",
      "top" : "380",
      "type" : "flatten",
      "name" : "Reshape_115"
    },
    {
      "weights" : {

      },
      "debug_info" : "Concat_116",
      "top" : "381",
      "type" : "concat",
      "name" : "Concat_116",
      "bottom" : "372,380"
    },
    {
      "nB" : 168,
      "top" : "383",
      "has_biases" : 0,
      "weights" : {

      },
      "nC" : 1,
      "blob_weights" : 209,
      "type" : "inner_product",
      "has_relu" : 0,
      "bottom" : "381",
      "debug_info" : "MatMul_117",
      "has_tanh" : 0,
      "name" : "MatMul_117",
      "has_prelu" : 0
    },
    {
      "bottom" : "383",
      "weights" : {

      },
      "mode" : 3,
      "debug_info" : "Sigmoid_118",
      "top" : "human_prob",
      "type" : "activation",
      "name" : "Sigmoid_118",
      "attributes" : {
        "is_output" : 1
      }
    }
  ],
  "transform_params" : {
    "input" : {
      "bias_a" : 0,
      "bias_g" : 0,
      "bias_r" : 0,
      "bias_b" : 0,
      "center_mean" : 0,
      "is_network_bgr" : 0,
      "scale" : 1
    }
  },
  "storage" : "model.espresso.weights",
  "metadata_in_weights" : [

  ],
  "properties" : {

  },
  "analyses" : {

  },
  "format_version" : 200
}