{
  "layers" : [
    {
      "pad_r" : 1,
      "fused_relu" : 1,
      "fused_tanh" : 0,
      "debug_info" : "Conv_0",
      "pad_fill_mode" : 0,
      "pad_b" : 1,
      "pad_l" : 1,
      "top" : "209",
      "blob_weights" : 3,
      "K" : 3,
      "blob_biases" : 1,
      "stride_x" : 2,
      "name" : "Conv_0",
      "has_batch_norm" : 0,
      "type" : "convolution",
      "n_groups" : 3,
      "pad_t" : 1,
      "stride_y" : 2,
      "has_biases" : 1,
      "C" : 3,
      "bottom" : "inputs",
      "weights" : {

      },
      "Nx" : 3,
      "pad_mode" : 0,
      "pad_value" : 0,
      "Ny" : 3,
      "n_parallel" : 1
    },
    {
      "pad_r" : 0,
      "fused_relu" : 1,
      "fused_tanh" : 0,
      "debug_info" : "Conv_2",
      "pad_fill_mode" : 0,
      "pad_b" : 0,
      "pad_l" : 0,
      "top" : "211",
      "blob_weights" : 7,
      "K" : 3,
      "blob_biases" : 5,
      "name" : "Conv_2",
      "has_batch_norm" : 0,
      "type" : "convolution",
      "n_groups" : 1,
      "pad_t" : 0,
      "has_biases" : 1,
      "C" : 16,
      "bottom" : "209",
      "weights" : {

      },
      "Nx" : 1,
      "pad_mode" : 0,
      "pad_value" : 0,
      "Ny" : 1,
      "n_parallel" : 1
    },
    {
      "pad_r" : 1,
      "fused_relu" : 1,
      "fused_tanh" : 0,
      "debug_info" : "Conv_4",
      "pad_fill_mode" : 0,
      "pad_b" : 1,
      "pad_l" : 1,
      "top" : "213",
      "blob_weights" : 11,
      "K" : 16,
      "blob_biases" : 9,
      "name" : "Conv_4",
      "has_batch_norm" : 0,
      "type" : "convolution",
      "n_groups" : 16,
      "pad_t" : 1,
      "has_biases" : 1,
      "C" : 16,
      "bottom" : "211",
      "weights" : {

      },
      "Nx" : 3,
      "pad_mode" : 0,
      "pad_value" : 0,
      "Ny" : 3,
      "n_parallel" : 1
    },
    {
      "pad_r" : 0,
      "fused_relu" : 1,
      "fused_tanh" : 0,
      "debug_info" : "Conv_6",
      "pad_fill_mode" : 0,
      "pad_b" : 0,
      "pad_l" : 0,
      "top" : "215",
      "blob_weights" : 15,
      "K" : 16,
      "blob_biases" : 13,
      "name" : "Conv_6",
      "has_batch_norm" : 0,
      "type" : "convolution",
      "n_groups" : 1,
      "pad_t" : 0,
      "has_biases" : 1,
      "C" : 16,
      "bottom" : "213",
      "weights" : {

      },
      "Nx" : 1,
      "pad_mode" : 0,
      "pad_value" : 0,
      "Ny" : 1,
      "n_parallel" : 1
    },
    {
      "pad_r" : 1,
      "fused_relu" : 1,
      "fused_tanh" : 0,
      "debug_info" : "Conv_8",
      "pad_fill_mode" : 0,
      "pad_b" : 1,
      "pad_l" : 1,
      "top" : "217",
      "blob_weights" : 19,
      "K" : 16,
      "blob_biases" : 17,
      "stride_x" : 2,
      "name" : "Conv_8",
      "has_batch_norm" : 0,
      "type" : "convolution",
      "n_groups" : 16,
      "pad_t" : 1,
      "stride_y" : 2,
      "has_biases" : 1,
      "C" : 16,
      "bottom" : "215",
      "weights" : {

      },
      "Nx" : 3,
      "pad_mode" : 0,
      "pad_value" : 0,
      "Ny" : 3,
      "n_parallel" : 1
    },
    {
      "pad_r" : 0,
      "fused_relu" : 1,
      "fused_tanh" : 0,
      "debug_info" : "Conv_10",
      "pad_fill_mode" : 0,
      "pad_b" : 0,
      "pad_l" : 0,
      "top" : "219",
      "blob_weights" : 23,
      "K" : 16,
      "blob_biases" : 21,
      "name" : "Conv_10",
      "has_batch_norm" : 0,
      "type" : "convolution",
      "n_groups" : 1,
      "pad_t" : 0,
      "has_biases" : 1,
      "C" : 32,
      "bottom" : "217",
      "weights" : {

      },
      "Nx" : 1,
      "pad_mode" : 0,
      "pad_value" : 0,
      "Ny" : 1,
      "n_parallel" : 1
    },
    {
      "pad_r" : 1,
      "fused_relu" : 1,
      "fused_tanh" : 0,
      "debug_info" : "Conv_12",
      "pad_fill_mode" : 0,
      "pad_b" : 1,
      "pad_l" : 1,
      "top" : "221",
      "blob_weights" : 27,
      "K" : 32,
      "blob_biases" : 25,
      "name" : "Conv_12",
      "has_batch_norm" : 0,
      "type" : "convolution",
      "n_groups" : 32,
      "pad_t" : 1,
      "has_biases" : 1,
      "C" : 32,
      "bottom" : "219",
      "weights" : {

      },
      "Nx" : 3,
      "pad_mode" : 0,
      "pad_value" : 0,
      "Ny" : 3,
      "n_parallel" : 1
    },
    {
      "pad_r" : 0,
      "fused_relu" : 1,
      "fused_tanh" : 0,
      "debug_info" : "Conv_14",
      "pad_fill_mode" : 0,
      "pad_b" : 0,
      "pad_l" : 0,
      "top" : "223",
      "blob_weights" : 31,
      "K" : 32,
      "blob_biases" : 29,
      "name" : "Conv_14",
      "has_batch_norm" : 0,
      "type" : "convolution",
      "n_groups" : 1,
      "pad_t" : 0,
      "has_biases" : 1,
      "C" : 32,
      "bottom" : "221",
      "weights" : {

      },
      "Nx" : 1,
      "pad_mode" : 0,
      "pad_value" : 0,
      "Ny" : 1,
      "n_parallel" : 1
    },
    {
      "pad_r" : 1,
      "fused_relu" : 1,
      "fused_tanh" : 0,
      "debug_info" : "Conv_16",
      "pad_fill_mode" : 0,
      "pad_b" : 1,
      "pad_l" : 1,
      "top" : "225",
      "blob_weights" : 35,
      "K" : 32,
      "blob_biases" : 33,
      "stride_x" : 2,
      "name" : "Conv_16",
      "has_batch_norm" : 0,
      "type" : "convolution",
      "n_groups" : 32,
      "pad_t" : 1,
      "stride_y" : 2,
      "has_biases" : 1,
      "C" : 32,
      "bottom" : "223",
      "weights" : {

      },
      "Nx" : 3,
      "pad_mode" : 0,
      "pad_value" : 0,
      "Ny" : 3,
      "n_parallel" : 1
    },
    {
      "pad_r" : 0,
      "fused_relu" : 1,
      "fused_tanh" : 0,
      "debug_info" : "Conv_18",
      "pad_fill_mode" : 0,
      "pad_b" : 0,
      "pad_l" : 0,
      "top" : "227",
      "blob_weights" : 39,
      "K" : 32,
      "blob_biases" : 37,
      "name" : "Conv_18",
      "has_batch_norm" : 0,
      "type" : "convolution",
      "n_groups" : 1,
      "pad_t" : 0,
      "has_biases" : 1,
      "C" : 64,
      "bottom" : "225",
      "weights" : {

      },
      "Nx" : 1,
      "pad_mode" : 0,
      "pad_value" : 0,
      "Ny" : 1,
      "n_parallel" : 1
    },
    {
      "pad_r" : 1,
      "fused_relu" : 1,
      "fused_tanh" : 0,
      "debug_info" : "Conv_20",
      "pad_fill_mode" : 0,
      "pad_b" : 1,
      "pad_l" : 1,
      "top" : "229",
      "blob_weights" : 43,
      "K" : 64,
      "blob_biases" : 41,
      "name" : "Conv_20",
      "has_batch_norm" : 0,
      "type" : "convolution",
      "n_groups" : 64,
      "pad_t" : 1,
      "has_biases" : 1,
      "C" : 64,
      "bottom" : "227",
      "weights" : {

      },
      "Nx" : 3,
      "pad_mode" : 0,
      "pad_value" : 0,
      "Ny" : 3,
      "n_parallel" : 1
    },
    {
      "pad_r" : 0,
      "fused_relu" : 1,
      "fused_tanh" : 0,
      "debug_info" : "Conv_22",
      "pad_fill_mode" : 0,
      "pad_b" : 0,
      "pad_l" : 0,
      "top" : "231",
      "blob_weights" : 47,
      "K" : 64,
      "blob_biases" : 45,
      "name" : "Conv_22",
      "has_batch_norm" : 0,
      "type" : "convolution",
      "n_groups" : 1,
      "pad_t" : 0,
      "has_biases" : 1,
      "C" : 64,
      "bottom" : "229",
      "weights" : {

      },
      "Nx" : 1,
      "pad_mode" : 0,
      "pad_value" : 0,
      "Ny" : 1,
      "n_parallel" : 1
    },
    {
      "pad_r" : 1,
      "fused_relu" : 1,
      "fused_tanh" : 0,
      "debug_info" : "Conv_24",
      "pad_fill_mode" : 0,
      "pad_b" : 1,
      "pad_l" : 1,
      "top" : "233",
      "blob_weights" : 51,
      "K" : 64,
      "blob_biases" : 49,
      "name" : "Conv_24",
      "has_batch_norm" : 0,
      "type" : "convolution",
      "n_groups" : 64,
      "pad_t" : 1,
      "has_biases" : 1,
      "C" : 64,
      "bottom" : "231",
      "weights" : {

      },
      "Nx" : 3,
      "pad_mode" : 0,
      "pad_value" : 0,
      "Ny" : 3,
      "n_parallel" : 1
    },
    {
      "pad_r" : 0,
      "fused_relu" : 1,
      "fused_tanh" : 0,
      "debug_info" : "Conv_26",
      "pad_fill_mode" : 0,
      "pad_b" : 0,
      "pad_l" : 0,
      "top" : "235",
      "blob_weights" : 55,
      "K" : 64,
      "blob_biases" : 53,
      "name" : "Conv_26",
      "has_batch_norm" : 0,
      "type" : "convolution",
      "n_groups" : 1,
      "pad_t" : 0,
      "has_biases" : 1,
      "C" : 64,
      "bottom" : "233",
      "weights" : {

      },
      "Nx" : 1,
      "pad_mode" : 0,
      "pad_value" : 0,
      "Ny" : 1,
      "n_parallel" : 1
    },
    {
      "pad_r" : 0,
      "fused_relu" : 1,
      "fused_tanh" : 0,
      "debug_info" : "Conv_28",
      "pad_fill_mode" : 0,
      "pad_b" : 0,
      "pad_l" : 0,
      "top" : "238",
      "blob_weights" : 59,
      "K" : 64,
      "blob_biases" : 57,
      "name" : "Conv_28",
      "has_batch_norm" : 0,
      "type" : "convolution",
      "n_groups" : 1,
      "pad_t" : 0,
      "has_biases" : 1,
      "C" : 16,
      "bottom" : "235",
      "weights" : {

      },
      "Nx" : 1,
      "pad_mode" : 0,
      "pad_value" : 0,
      "Ny" : 1,
      "n_parallel" : 1
    },
    {
      "pad_r" : 1,
      "fused_relu" : 0,
      "fused_tanh" : 0,
      "debug_info" : "Conv_30",
      "pad_fill_mode" : 0,
      "pad_b" : 1,
      "pad_l" : 1,
      "top" : "378",
      "blob_weights" : 63,
      "K" : 16,
      "blob_biases" : 61,
      "name" : "Conv_30",
      "has_batch_norm" : 0,
      "type" : "convolution",
      "n_groups" : 16,
      "pad_t" : 1,
      "has_biases" : 1,
      "C" : 16,
      "bottom" : "238",
      "weights" : {

      },
      "Nx" : 3,
      "pad_mode" : 0,
      "pad_value" : 0,
      "Ny" : 3,
      "n_parallel" : 1
    },
    {
      "pad_r" : 0,
      "fused_relu" : 1,
      "fused_tanh" : 0,
      "debug_info" : "Conv_31",
      "pad_fill_mode" : 0,
      "pad_b" : 0,
      "pad_l" : 0,
      "top" : "243",
      "blob_weights" : 67,
      "K" : 64,
      "blob_biases" : 65,
      "name" : "Conv_31",
      "has_batch_norm" : 0,
      "type" : "convolution",
      "n_groups" : 1,
      "pad_t" : 0,
      "has_biases" : 1,
      "C" : 16,
      "bottom" : "235",
      "weights" : {

      },
      "Nx" : 1,
      "pad_mode" : 0,
      "pad_value" : 0,
      "Ny" : 1,
      "n_parallel" : 1
    },
    {
      "pad_r" : 1,
      "fused_relu" : 1,
      "fused_tanh" : 0,
      "debug_info" : "Conv_33",
      "pad_fill_mode" : 0,
      "pad_b" : 1,
      "pad_l" : 1,
      "top" : "245",
      "blob_weights" : 71,
      "K" : 16,
      "blob_biases" : 69,
      "name" : "Conv_33",
      "has_batch_norm" : 0,
      "type" : "convolution",
      "n_groups" : 1,
      "pad_t" : 1,
      "has_biases" : 1,
      "C" : 16,
      "bottom" : "243",
      "weights" : {

      },
      "Nx" : 3,
      "pad_mode" : 0,
      "pad_value" : 0,
      "Ny" : 3,
      "n_parallel" : 1
    },
    {
      "pad_r" : 3,
      "fused_relu" : 0,
      "fused_tanh" : 0,
      "debug_info" : "Conv_35",
      "pad_fill_mode" : 0,
      "pad_b" : 3,
      "pad_l" : 3,
      "top" : "384",
      "blob_weights" : 75,
      "K" : 16,
      "blob_biases" : 73,
      "name" : "Conv_35",
      "has_batch_norm" : 0,
      "type" : "convolution",
      "n_groups" : 16,
      "pad_t" : 3,
      "has_biases" : 1,
      "C" : 16,
      "bottom" : "245",
      "weights" : {

      },
      "Nx" : 3,
      "pad_mode" : 0,
      "dilation_x" : 3,
      "pad_value" : 0,
      "Ny" : 3,
      "n_parallel" : 1,
      "dilation_y" : 3
    },
    {
      "pad_r" : 0,
      "fused_relu" : 1,
      "fused_tanh" : 0,
      "debug_info" : "Conv_36",
      "pad_fill_mode" : 0,
      "pad_b" : 0,
      "pad_l" : 0,
      "top" : "250",
      "blob_weights" : 79,
      "K" : 64,
      "blob_biases" : 77,
      "name" : "Conv_36",
      "has_batch_norm" : 0,
      "type" : "convolution",
      "n_groups" : 1,
      "pad_t" : 0,
      "has_biases" : 1,
      "C" : 8,
      "bottom" : "235",
      "weights" : {

      },
      "Nx" : 1,
      "pad_mode" : 0,
      "pad_value" : 0,
      "Ny" : 1,
      "n_parallel" : 1
    },
    {
      "pad_r" : 1,
      "fused_relu" : 1,
      "fused_tanh" : 0,
      "debug_info" : "Conv_38",
      "pad_fill_mode" : 0,
      "pad_b" : 1,
      "pad_l" : 1,
      "top" : "253",
      "blob_weights" : 83,
      "K" : 8,
      "blob_biases" : 81,
      "name" : "Conv_38",
      "has_batch_norm" : 0,
      "type" : "convolution",
      "n_groups" : 1,
      "pad_t" : 1,
      "has_biases" : 1,
      "C" : 12,
      "bottom" : "250",
      "weights" : {

      },
      "Nx" : 3,
      "pad_mode" : 0,
      "pad_value" : 0,
      "Ny" : 3,
      "n_parallel" : 1
    },
    {
      "pad_r" : 1,
      "fused_relu" : 1,
      "fused_tanh" : 0,
      "debug_info" : "Conv_40",
      "pad_fill_mode" : 0,
      "pad_b" : 1,
      "pad_l" : 1,
      "top" : "256",
      "blob_weights" : 87,
      "K" : 12,
      "blob_biases" : 85,
      "name" : "Conv_40",
      "has_batch_norm" : 0,
      "type" : "convolution",
      "n_groups" : 1,
      "pad_t" : 1,
      "has_biases" : 1,
      "C" : 16,
      "bottom" : "253",
      "weights" : {

      },
      "Nx" : 3,
      "pad_mode" : 0,
      "pad_value" : 0,
      "Ny" : 3,
      "n_parallel" : 1
    },
    {
      "pad_r" : 5,
      "fused_relu" : 0,
      "fused_tanh" : 0,
      "debug_info" : "Conv_42",
      "pad_fill_mode" : 0,
      "pad_b" : 5,
      "pad_l" : 5,
      "top" : "396",
      "blob_weights" : 91,
      "K" : 16,
      "blob_biases" : 89,
      "name" : "Conv_42",
      "has_batch_norm" : 0,
      "type" : "convolution",
      "n_groups" : 16,
      "pad_t" : 5,
      "has_biases" : 1,
      "C" : 16,
      "bottom" : "256",
      "weights" : {

      },
      "Nx" : 3,
      "pad_mode" : 0,
      "dilation_x" : 5,
      "pad_value" : 0,
      "Ny" : 3,
      "n_parallel" : 1,
      "dilation_y" : 5
    },
    {
      "weights" : {

      },
      "debug_info" : "Concat_43",
      "top" : "259",
      "type" : "concat",
      "name" : "Concat_43",
      "bottom" : "378,384,396"
    },
    {
      "pad_r" : 0,
      "fused_relu" : 0,
      "fused_tanh" : 0,
      "debug_info" : "Conv_44",
      "pad_fill_mode" : 0,
      "pad_b" : 0,
      "pad_l" : 0,
      "top" : "399",
      "blob_weights" : 95,
      "K" : 48,
      "blob_biases" : 93,
      "name" : "Conv_44",
      "has_batch_norm" : 0,
      "type" : "convolution",
      "n_groups" : 1,
      "pad_t" : 0,
      "has_biases" : 1,
      "C" : 64,
      "bottom" : "259",
      "weights" : {

      },
      "Nx" : 1,
      "pad_mode" : 0,
      "pad_value" : 0,
      "Ny" : 1,
      "n_parallel" : 1
    },
    {
      "bottom" : "399,235",
      "alpha" : 1,
      "operation" : 0,
      "weights" : {

      },
      "fused_relu" : 0,
      "debug_info" : "Add_45",
      "top" : "262",
      "type" : "elementwise",
      "name" : "Add_45",
      "beta" : 0
    },
    {
      "bottom" : "262",
      "weights" : {

      },
      "mode" : 0,
      "debug_info" : "Relu_46",
      "top" : "263",
      "type" : "activation",
      "name" : "Relu_46"
    },
    {
      "pad_r" : 1,
      "fused_relu" : 1,
      "fused_tanh" : 0,
      "debug_info" : "Conv_47",
      "pad_fill_mode" : 0,
      "pad_b" : 1,
      "pad_l" : 1,
      "top" : "265",
      "blob_weights" : 99,
      "K" : 64,
      "blob_biases" : 97,
      "stride_x" : 2,
      "name" : "Conv_47",
      "has_batch_norm" : 0,
      "type" : "convolution",
      "n_groups" : 64,
      "pad_t" : 1,
      "stride_y" : 2,
      "has_biases" : 1,
      "C" : 64,
      "bottom" : "263",
      "weights" : {

      },
      "Nx" : 3,
      "pad_mode" : 0,
      "pad_value" : 0,
      "Ny" : 3,
      "n_parallel" : 1
    },
    {
      "pad_r" : 0,
      "fused_relu" : 1,
      "fused_tanh" : 0,
      "debug_info" : "Conv_49",
      "pad_fill_mode" : 0,
      "pad_b" : 0,
      "pad_l" : 0,
      "top" : "267",
      "blob_weights" : 103,
      "K" : 64,
      "blob_biases" : 101,
      "name" : "Conv_49",
      "has_batch_norm" : 0,
      "type" : "convolution",
      "n_groups" : 1,
      "pad_t" : 0,
      "has_biases" : 1,
      "C" : 128,
      "bottom" : "265",
      "weights" : {

      },
      "Nx" : 1,
      "pad_mode" : 0,
      "pad_value" : 0,
      "Ny" : 1,
      "n_parallel" : 1
    },
    {
      "pad_r" : 1,
      "fused_relu" : 1,
      "fused_tanh" : 0,
      "debug_info" : "Conv_51",
      "pad_fill_mode" : 0,
      "pad_b" : 1,
      "pad_l" : 1,
      "top" : "269",
      "blob_weights" : 107,
      "K" : 128,
      "blob_biases" : 105,
      "name" : "Conv_51",
      "has_batch_norm" : 0,
      "type" : "convolution",
      "n_groups" : 128,
      "pad_t" : 1,
      "has_biases" : 1,
      "C" : 128,
      "bottom" : "267",
      "weights" : {

      },
      "Nx" : 3,
      "pad_mode" : 0,
      "pad_value" : 0,
      "Ny" : 3,
      "n_parallel" : 1
    },
    {
      "pad_r" : 0,
      "fused_relu" : 1,
      "fused_tanh" : 0,
      "debug_info" : "Conv_53",
      "pad_fill_mode" : 0,
      "pad_b" : 0,
      "pad_l" : 0,
      "top" : "271",
      "blob_weights" : 111,
      "K" : 128,
      "blob_biases" : 109,
      "name" : "Conv_53",
      "has_batch_norm" : 0,
      "type" : "convolution",
      "n_groups" : 1,
      "pad_t" : 0,
      "has_biases" : 1,
      "C" : 128,
      "bottom" : "269",
      "weights" : {

      },
      "Nx" : 1,
      "pad_mode" : 0,
      "pad_value" : 0,
      "Ny" : 1,
      "n_parallel" : 1
    },
    {
      "pad_r" : 0,
      "fused_relu" : 1,
      "fused_tanh" : 0,
      "debug_info" : "Conv_55",
      "pad_fill_mode" : 0,
      "pad_b" : 0,
      "pad_l" : 0,
      "top" : "274",
      "blob_weights" : 115,
      "K" : 128,
      "blob_biases" : 113,
      "name" : "Conv_55",
      "has_batch_norm" : 0,
      "type" : "convolution",
      "n_groups" : 1,
      "pad_t" : 0,
      "has_biases" : 1,
      "C" : 32,
      "bottom" : "271",
      "weights" : {

      },
      "Nx" : 1,
      "pad_mode" : 0,
      "pad_value" : 0,
      "Ny" : 1,
      "n_parallel" : 1
    },
    {
      "pad_r" : 1,
      "fused_relu" : 0,
      "fused_tanh" : 0,
      "debug_info" : "Conv_57",
      "pad_fill_mode" : 0,
      "pad_b" : 1,
      "pad_l" : 1,
      "top" : "405",
      "blob_weights" : 119,
      "K" : 32,
      "blob_biases" : 117,
      "name" : "Conv_57",
      "has_batch_norm" : 0,
      "type" : "convolution",
      "n_groups" : 32,
      "pad_t" : 1,
      "has_biases" : 1,
      "C" : 32,
      "bottom" : "274",
      "weights" : {

      },
      "Nx" : 3,
      "pad_mode" : 0,
      "pad_value" : 0,
      "Ny" : 3,
      "n_parallel" : 1
    },
    {
      "pad_r" : 0,
      "fused_relu" : 1,
      "fused_tanh" : 0,
      "debug_info" : "Conv_58",
      "pad_fill_mode" : 0,
      "pad_b" : 0,
      "pad_l" : 0,
      "top" : "279",
      "blob_weights" : 123,
      "K" : 128,
      "blob_biases" : 121,
      "name" : "Conv_58",
      "has_batch_norm" : 0,
      "type" : "convolution",
      "n_groups" : 1,
      "pad_t" : 0,
      "has_biases" : 1,
      "C" : 32,
      "bottom" : "271",
      "weights" : {

      },
      "Nx" : 1,
      "pad_mode" : 0,
      "pad_value" : 0,
      "Ny" : 1,
      "n_parallel" : 1
    },
    {
      "pad_r" : 1,
      "fused_relu" : 1,
      "fused_tanh" : 0,
      "debug_info" : "Conv_60",
      "pad_fill_mode" : 0,
      "pad_b" : 1,
      "pad_l" : 1,
      "top" : "281",
      "blob_weights" : 127,
      "K" : 32,
      "blob_biases" : 125,
      "name" : "Conv_60",
      "has_batch_norm" : 0,
      "type" : "convolution",
      "n_groups" : 1,
      "pad_t" : 1,
      "has_biases" : 1,
      "C" : 32,
      "bottom" : "279",
      "weights" : {

      },
      "Nx" : 3,
      "pad_mode" : 0,
      "pad_value" : 0,
      "Ny" : 3,
      "n_parallel" : 1
    },
    {
      "pad_r" : 3,
      "fused_relu" : 0,
      "fused_tanh" : 0,
      "debug_info" : "Conv_62",
      "pad_fill_mode" : 0,
      "pad_b" : 3,
      "pad_l" : 3,
      "top" : "411",
      "blob_weights" : 131,
      "K" : 32,
      "blob_biases" : 129,
      "name" : "Conv_62",
      "has_batch_norm" : 0,
      "type" : "convolution",
      "n_groups" : 32,
      "pad_t" : 3,
      "has_biases" : 1,
      "C" : 32,
      "bottom" : "281",
      "weights" : {

      },
      "Nx" : 3,
      "pad_mode" : 0,
      "dilation_x" : 3,
      "pad_value" : 0,
      "Ny" : 3,
      "n_parallel" : 1,
      "dilation_y" : 3
    },
    {
      "pad_r" : 0,
      "fused_relu" : 1,
      "fused_tanh" : 0,
      "debug_info" : "Conv_63",
      "pad_fill_mode" : 0,
      "pad_b" : 0,
      "pad_l" : 0,
      "top" : "286",
      "blob_weights" : 135,
      "K" : 128,
      "blob_biases" : 133,
      "name" : "Conv_63",
      "has_batch_norm" : 0,
      "type" : "convolution",
      "n_groups" : 1,
      "pad_t" : 0,
      "has_biases" : 1,
      "C" : 16,
      "bottom" : "271",
      "weights" : {

      },
      "Nx" : 1,
      "pad_mode" : 0,
      "pad_value" : 0,
      "Ny" : 1,
      "n_parallel" : 1
    },
    {
      "pad_r" : 1,
      "fused_relu" : 1,
      "fused_tanh" : 0,
      "debug_info" : "Conv_65",
      "pad_fill_mode" : 0,
      "pad_b" : 1,
      "pad_l" : 1,
      "top" : "289",
      "blob_weights" : 139,
      "K" : 16,
      "blob_biases" : 137,
      "name" : "Conv_65",
      "has_batch_norm" : 0,
      "type" : "convolution",
      "n_groups" : 1,
      "pad_t" : 1,
      "has_biases" : 1,
      "C" : 24,
      "bottom" : "286",
      "weights" : {

      },
      "Nx" : 3,
      "pad_mode" : 0,
      "pad_value" : 0,
      "Ny" : 3,
      "n_parallel" : 1
    },
    {
      "pad_r" : 1,
      "fused_relu" : 1,
      "fused_tanh" : 0,
      "debug_info" : "Conv_67",
      "pad_fill_mode" : 0,
      "pad_b" : 1,
      "pad_l" : 1,
      "top" : "292",
      "blob_weights" : 143,
      "K" : 24,
      "blob_biases" : 141,
      "name" : "Conv_67",
      "has_batch_norm" : 0,
      "type" : "convolution",
      "n_groups" : 1,
      "pad_t" : 1,
      "has_biases" : 1,
      "C" : 32,
      "bottom" : "289",
      "weights" : {

      },
      "Nx" : 3,
      "pad_mode" : 0,
      "pad_value" : 0,
      "Ny" : 3,
      "n_parallel" : 1
    },
    {
      "pad_r" : 5,
      "fused_relu" : 0,
      "fused_tanh" : 0,
      "debug_info" : "Conv_69",
      "pad_fill_mode" : 0,
      "pad_b" : 5,
      "pad_l" : 5,
      "top" : "423",
      "blob_weights" : 147,
      "K" : 32,
      "blob_biases" : 145,
      "name" : "Conv_69",
      "has_batch_norm" : 0,
      "type" : "convolution",
      "n_groups" : 32,
      "pad_t" : 5,
      "has_biases" : 1,
      "C" : 32,
      "bottom" : "292",
      "weights" : {

      },
      "Nx" : 3,
      "pad_mode" : 0,
      "dilation_x" : 5,
      "pad_value" : 0,
      "Ny" : 3,
      "n_parallel" : 1,
      "dilation_y" : 5
    },
    {
      "weights" : {

      },
      "debug_info" : "Concat_70",
      "top" : "295",
      "type" : "concat",
      "name" : "Concat_70",
      "bottom" : "405,411,423"
    },
    {
      "pad_r" : 0,
      "fused_relu" : 0,
      "fused_tanh" : 0,
      "debug_info" : "Conv_71",
      "pad_fill_mode" : 0,
      "pad_b" : 0,
      "pad_l" : 0,
      "top" : "426",
      "blob_weights" : 151,
      "K" : 96,
      "blob_biases" : 149,
      "name" : "Conv_71",
      "has_batch_norm" : 0,
      "type" : "convolution",
      "n_groups" : 1,
      "pad_t" : 0,
      "has_biases" : 1,
      "C" : 128,
      "bottom" : "295",
      "weights" : {

      },
      "Nx" : 1,
      "pad_mode" : 0,
      "pad_value" : 0,
      "Ny" : 1,
      "n_parallel" : 1
    },
    {
      "bottom" : "426,271",
      "alpha" : 1,
      "operation" : 0,
      "weights" : {

      },
      "fused_relu" : 0,
      "debug_info" : "Add_72",
      "top" : "298",
      "type" : "elementwise",
      "name" : "Add_72",
      "beta" : 0
    },
    {
      "bottom" : "298",
      "weights" : {

      },
      "mode" : 0,
      "debug_info" : "Relu_73",
      "top" : "299",
      "type" : "activation",
      "name" : "Relu_73"
    },
    {
      "pad_r" : 1,
      "fused_relu" : 1,
      "fused_tanh" : 0,
      "debug_info" : "Conv_74",
      "pad_fill_mode" : 0,
      "pad_b" : 1,
      "pad_l" : 1,
      "top" : "301",
      "blob_weights" : 155,
      "K" : 128,
      "blob_biases" : 153,
      "stride_x" : 2,
      "name" : "Conv_74",
      "has_batch_norm" : 0,
      "type" : "convolution",
      "n_groups" : 128,
      "pad_t" : 1,
      "stride_y" : 2,
      "has_biases" : 1,
      "C" : 128,
      "bottom" : "299",
      "weights" : {

      },
      "Nx" : 3,
      "pad_mode" : 0,
      "pad_value" : 0,
      "Ny" : 3,
      "n_parallel" : 1
    },
    {
      "pad_r" : 0,
      "fused_relu" : 1,
      "fused_tanh" : 0,
      "debug_info" : "Conv_76",
      "pad_fill_mode" : 0,
      "pad_b" : 0,
      "pad_l" : 0,
      "top" : "303",
      "blob_weights" : 159,
      "K" : 128,
      "blob_biases" : 157,
      "name" : "Conv_76",
      "has_batch_norm" : 0,
      "type" : "convolution",
      "n_groups" : 1,
      "pad_t" : 0,
      "has_biases" : 1,
      "C" : 256,
      "bottom" : "301",
      "weights" : {

      },
      "Nx" : 1,
      "pad_mode" : 0,
      "pad_value" : 0,
      "Ny" : 1,
      "n_parallel" : 1
    },
    {
      "pad_r" : 1,
      "fused_relu" : 1,
      "fused_tanh" : 0,
      "debug_info" : "Conv_78",
      "pad_fill_mode" : 0,
      "pad_b" : 1,
      "pad_l" : 1,
      "top" : "305",
      "blob_weights" : 163,
      "K" : 256,
      "blob_biases" : 161,
      "name" : "Conv_78",
      "has_batch_norm" : 0,
      "type" : "convolution",
      "n_groups" : 256,
      "pad_t" : 1,
      "has_biases" : 1,
      "C" : 256,
      "bottom" : "303",
      "weights" : {

      },
      "Nx" : 3,
      "pad_mode" : 0,
      "pad_value" : 0,
      "Ny" : 3,
      "n_parallel" : 1
    },
    {
      "pad_r" : 0,
      "fused_relu" : 1,
      "fused_tanh" : 0,
      "debug_info" : "Conv_80",
      "pad_fill_mode" : 0,
      "pad_b" : 0,
      "pad_l" : 0,
      "top" : "307",
      "blob_weights" : 167,
      "K" : 256,
      "blob_biases" : 165,
      "name" : "Conv_80",
      "has_batch_norm" : 0,
      "type" : "convolution",
      "n_groups" : 1,
      "pad_t" : 0,
      "has_biases" : 1,
      "C" : 256,
      "bottom" : "305",
      "weights" : {

      },
      "Nx" : 1,
      "pad_mode" : 0,
      "pad_value" : 0,
      "Ny" : 1,
      "n_parallel" : 1
    },
    {
      "pad_r" : 0,
      "fused_relu" : 1,
      "fused_tanh" : 0,
      "debug_info" : "Conv_82",
      "pad_fill_mode" : 0,
      "pad_b" : 0,
      "pad_l" : 0,
      "top" : "309",
      "blob_weights" : 171,
      "K" : 64,
      "blob_biases" : 169,
      "name" : "Conv_82",
      "has_batch_norm" : 0,
      "type" : "convolution",
      "n_groups" : 1,
      "pad_t" : 0,
      "has_biases" : 1,
      "C" : 128,
      "bottom" : "263",
      "weights" : {

      },
      "Nx" : 1,
      "pad_mode" : 0,
      "pad_value" : 0,
      "Ny" : 1,
      "n_parallel" : 1
    },
    {
      "pad_r" : 0,
      "fused_relu" : 1,
      "fused_tanh" : 0,
      "debug_info" : "Conv_84",
      "pad_fill_mode" : 0,
      "pad_b" : 0,
      "pad_l" : 0,
      "top" : "311",
      "blob_weights" : 175,
      "K" : 128,
      "blob_biases" : 173,
      "name" : "Conv_84",
      "has_batch_norm" : 0,
      "type" : "convolution",
      "n_groups" : 1,
      "pad_t" : 0,
      "has_biases" : 1,
      "C" : 128,
      "bottom" : "299",
      "weights" : {

      },
      "Nx" : 1,
      "pad_mode" : 0,
      "pad_value" : 0,
      "Ny" : 1,
      "n_parallel" : 1
    },
    {
      "pad_r" : 0,
      "fused_relu" : 1,
      "fused_tanh" : 0,
      "debug_info" : "Conv_86",
      "pad_fill_mode" : 0,
      "pad_b" : 0,
      "pad_l" : 0,
      "top" : "313",
      "blob_weights" : 179,
      "K" : 256,
      "blob_biases" : 177,
      "name" : "Conv_86",
      "has_batch_norm" : 0,
      "type" : "convolution",
      "n_groups" : 1,
      "pad_t" : 0,
      "has_biases" : 1,
      "C" : 128,
      "bottom" : "307",
      "weights" : {

      },
      "Nx" : 1,
      "pad_mode" : 0,
      "pad_value" : 0,
      "Ny" : 1,
      "n_parallel" : 1
    },
    {
      "pad_r" : 0,
      "fused_relu" : 0,
      "fused_tanh" : 0,
      "debug_info" : "ConvTranspose_88",
      "pad_fill_mode" : 0,
      "pad_b" : 0,
      "pad_l" : 0,
      "top" : "314_conv_tranpose_post_crop",
      "blob_weights" : 181,
      "K" : 128,
      "stride_x" : 2,
      "name" : "ConvTranspose_88",
      "has_batch_norm" : 0,
      "type" : "deconvolution",
      "n_groups" : 128,
      "pad_t" : 0,
      "hint_fallback_from_metal" : 1,
      "stride_y" : 2,
      "has_biases" : 0,
      "C" : 128,
      "bottom" : "313",
      "weights" : {

      },
      "Nx" : 4,
      "pad_mode" : 0,
      "pad_value" : 0,
      "Ny" : 4,
      "n_parallel" : 1
    },
    {
      "bottom" : "314_conv_tranpose_post_crop",
      "t" : 1,
      "weights" : {

      },
      "l" : 1,
      "debug_info" : "ConvTranspose_88_post_crop",
      "r" : 1,
      "top" : "314",
      "type" : "crop",
      "name" : "ConvTranspose_88_post_crop",
      "b" : 1
    },
    {
      "bottom" : "311,314",
      "alpha" : 1,
      "operation" : 0,
      "weights" : {

      },
      "fused_relu" : 0,
      "debug_info" : "Add_89",
      "top" : "315",
      "type" : "elementwise",
      "name" : "Add_89",
      "beta" : 0
    },
    {
      "pad_r" : 0,
      "fused_relu" : 0,
      "fused_tanh" : 0,
      "debug_info" : "ConvTranspose_90",
      "pad_fill_mode" : 0,
      "pad_b" : 0,
      "pad_l" : 0,
      "top" : "316_conv_tranpose_post_crop",
      "blob_weights" : 183,
      "K" : 128,
      "stride_x" : 2,
      "name" : "ConvTranspose_90",
      "has_batch_norm" : 0,
      "type" : "deconvolution",
      "n_groups" : 128,
      "pad_t" : 0,
      "hint_fallback_from_metal" : 1,
      "stride_y" : 2,
      "has_biases" : 0,
      "C" : 128,
      "bottom" : "315",
      "weights" : {

      },
      "Nx" : 4,
      "pad_mode" : 0,
      "pad_value" : 0,
      "Ny" : 4,
      "n_parallel" : 1
    },
    {
      "bottom" : "316_conv_tranpose_post_crop",
      "t" : 1,
      "weights" : {

      },
      "l" : 1,
      "debug_info" : "ConvTranspose_90_post_crop",
      "r" : 1,
      "top" : "316",
      "type" : "crop",
      "name" : "ConvTranspose_90_post_crop",
      "b" : 1
    },
    {
      "bottom" : "309,316",
      "alpha" : 1,
      "operation" : 0,
      "weights" : {

      },
      "fused_relu" : 0,
      "debug_info" : "Add_91",
      "top" : "317",
      "type" : "elementwise",
      "name" : "Add_91",
      "beta" : 0
    },
    {
      "pad_r" : 1,
      "fused_relu" : 1,
      "fused_tanh" : 0,
      "debug_info" : "Conv_92",
      "pad_fill_mode" : 0,
      "pad_b" : 1,
      "pad_l" : 1,
      "top" : "319",
      "blob_weights" : 187,
      "K" : 128,
      "blob_biases" : 185,
      "name" : "Conv_92",
      "has_batch_norm" : 0,
      "type" : "convolution",
      "n_groups" : 128,
      "pad_t" : 1,
      "has_biases" : 1,
      "C" : 128,
      "bottom" : "317",
      "weights" : {

      },
      "Nx" : 3,
      "pad_mode" : 0,
      "pad_value" : 0,
      "Ny" : 3,
      "n_parallel" : 1
    },
    {
      "pad_r" : 0,
      "fused_relu" : 1,
      "fused_tanh" : 0,
      "debug_info" : "Conv_94",
      "pad_fill_mode" : 0,
      "pad_b" : 0,
      "pad_l" : 0,
      "top" : "321",
      "blob_weights" : 191,
      "K" : 128,
      "blob_biases" : 189,
      "name" : "Conv_94",
      "has_batch_norm" : 0,
      "type" : "convolution",
      "n_groups" : 1,
      "pad_t" : 0,
      "has_biases" : 1,
      "C" : 128,
      "bottom" : "319",
      "weights" : {

      },
      "Nx" : 1,
      "pad_mode" : 0,
      "pad_value" : 0,
      "Ny" : 1,
      "n_parallel" : 1
    },
    {
      "pad_r" : 1,
      "fused_relu" : 1,
      "fused_tanh" : 0,
      "debug_info" : "Conv_96",
      "pad_fill_mode" : 0,
      "pad_b" : 1,
      "pad_l" : 1,
      "top" : "323",
      "blob_weights" : 195,
      "K" : 128,
      "blob_biases" : 193,
      "name" : "Conv_96",
      "has_batch_norm" : 0,
      "type" : "convolution",
      "n_groups" : 128,
      "pad_t" : 1,
      "has_biases" : 1,
      "C" : 128,
      "bottom" : "315",
      "weights" : {

      },
      "Nx" : 3,
      "pad_mode" : 0,
      "pad_value" : 0,
      "Ny" : 3,
      "n_parallel" : 1
    },
    {
      "pad_r" : 0,
      "fused_relu" : 1,
      "fused_tanh" : 0,
      "debug_info" : "Conv_98",
      "pad_fill_mode" : 0,
      "pad_b" : 0,
      "pad_l" : 0,
      "top" : "325",
      "blob_weights" : 199,
      "K" : 128,
      "blob_biases" : 197,
      "name" : "Conv_98",
      "has_batch_norm" : 0,
      "type" : "convolution",
      "n_groups" : 1,
      "pad_t" : 0,
      "has_biases" : 1,
      "C" : 128,
      "bottom" : "323",
      "weights" : {

      },
      "Nx" : 1,
      "pad_mode" : 0,
      "pad_value" : 0,
      "Ny" : 1,
      "n_parallel" : 1
    },
    {
      "pad_r" : 1,
      "fused_relu" : 1,
      "fused_tanh" : 0,
      "debug_info" : "Conv_100",
      "pad_fill_mode" : 0,
      "pad_b" : 1,
      "pad_l" : 1,
      "top" : "327",
      "blob_weights" : 203,
      "K" : 128,
      "blob_biases" : 201,
      "name" : "Conv_100",
      "has_batch_norm" : 0,
      "type" : "convolution",
      "n_groups" : 128,
      "pad_t" : 1,
      "has_biases" : 1,
      "C" : 128,
      "bottom" : "313",
      "weights" : {

      },
      "Nx" : 3,
      "pad_mode" : 0,
      "pad_value" : 0,
      "Ny" : 3,
      "n_parallel" : 1
    },
    {
      "pad_r" : 0,
      "fused_relu" : 1,
      "fused_tanh" : 0,
      "debug_info" : "Conv_102",
      "pad_fill_mode" : 0,
      "pad_b" : 0,
      "pad_l" : 0,
      "top" : "329",
      "blob_weights" : 207,
      "K" : 128,
      "blob_biases" : 205,
      "name" : "Conv_102",
      "has_batch_norm" : 0,
      "type" : "convolution",
      "n_groups" : 1,
      "pad_t" : 0,
      "has_biases" : 1,
      "C" : 128,
      "bottom" : "327",
      "weights" : {

      },
      "Nx" : 1,
      "pad_mode" : 0,
      "pad_value" : 0,
      "Ny" : 1,
      "n_parallel" : 1
    },
    {
      "pad_r" : 1,
      "fused_relu" : 1,
      "fused_tanh" : 0,
      "debug_info" : "Conv_104",
      "pad_fill_mode" : 0,
      "pad_b" : 1,
      "pad_l" : 1,
      "top" : "331",
      "blob_weights" : 211,
      "K" : 128,
      "blob_biases" : 209,
      "name" : "Conv_104",
      "has_batch_norm" : 0,
      "type" : "convolution",
      "n_groups" : 128,
      "pad_t" : 1,
      "has_biases" : 1,
      "C" : 128,
      "bottom" : "321",
      "weights" : {

      },
      "Nx" : 3,
      "pad_mode" : 0,
      "pad_value" : 0,
      "Ny" : 3,
      "n_parallel" : 1
    },
    {
      "pad_r" : 0,
      "fused_relu" : 0,
      "fused_tanh" : 0,
      "debug_info" : "Conv_106",
      "pad_fill_mode" : 0,
      "pad_b" : 0,
      "pad_l" : 0,
      "top" : "332",
      "blob_weights" : 215,
      "K" : 128,
      "blob_biases" : 213,
      "name" : "Conv_106",
      "has_batch_norm" : 0,
      "type" : "convolution",
      "n_groups" : 1,
      "pad_t" : 0,
      "has_biases" : 1,
      "C" : 1,
      "bottom" : "331",
      "weights" : {

      },
      "Nx" : 1,
      "pad_mode" : 0,
      "pad_value" : 0,
      "Ny" : 1,
      "n_parallel" : 1
    },
    {
      "pad_r" : 1,
      "fused_relu" : 1,
      "fused_tanh" : 0,
      "debug_info" : "Conv_107",
      "pad_fill_mode" : 0,
      "pad_b" : 1,
      "pad_l" : 1,
      "top" : "334",
      "blob_weights" : 219,
      "K" : 128,
      "blob_biases" : 217,
      "name" : "Conv_107",
      "has_batch_norm" : 0,
      "type" : "convolution",
      "n_groups" : 128,
      "pad_t" : 1,
      "has_biases" : 1,
      "C" : 128,
      "bottom" : "321",
      "weights" : {

      },
      "Nx" : 3,
      "pad_mode" : 0,
      "pad_value" : 0,
      "Ny" : 3,
      "n_parallel" : 1
    },
    {
      "pad_r" : 0,
      "fused_relu" : 0,
      "fused_tanh" : 0,
      "debug_info" : "Conv_109",
      "pad_fill_mode" : 0,
      "pad_b" : 0,
      "pad_l" : 0,
      "top" : "335",
      "blob_weights" : 223,
      "K" : 128,
      "blob_biases" : 221,
      "name" : "Conv_109",
      "has_batch_norm" : 0,
      "type" : "convolution",
      "n_groups" : 1,
      "pad_t" : 0,
      "has_biases" : 1,
      "C" : 4,
      "bottom" : "334",
      "weights" : {

      },
      "Nx" : 1,
      "pad_mode" : 0,
      "pad_value" : 0,
      "Ny" : 1,
      "n_parallel" : 1
    },
    {
      "pad_r" : 0,
      "fused_relu" : 0,
      "fused_tanh" : 0,
      "debug_info" : "Conv_110",
      "pad_fill_mode" : 0,
      "pad_b" : 0,
      "pad_l" : 0,
      "top" : "336",
      "blob_weights" : 227,
      "K" : 128,
      "blob_biases" : 225,
      "name" : "Conv_110",
      "has_batch_norm" : 0,
      "type" : "convolution",
      "n_groups" : 1,
      "pad_t" : 0,
      "has_biases" : 1,
      "C" : 1,
      "bottom" : "334",
      "weights" : {

      },
      "Nx" : 1,
      "pad_mode" : 0,
      "pad_value" : 0,
      "Ny" : 1,
      "n_parallel" : 1
    },
    {
      "pad_r" : 1,
      "fused_relu" : 1,
      "fused_tanh" : 0,
      "debug_info" : "Conv_111",
      "pad_fill_mode" : 0,
      "pad_b" : 1,
      "pad_l" : 1,
      "top" : "338",
      "blob_weights" : 231,
      "K" : 128,
      "blob_biases" : 229,
      "name" : "Conv_111",
      "has_batch_norm" : 0,
      "type" : "convolution",
      "n_groups" : 128,
      "pad_t" : 1,
      "has_biases" : 1,
      "C" : 128,
      "bottom" : "325",
      "weights" : {

      },
      "Nx" : 3,
      "pad_mode" : 0,
      "pad_value" : 0,
      "Ny" : 3,
      "n_parallel" : 1
    },
    {
      "pad_r" : 0,
      "fused_relu" : 0,
      "fused_tanh" : 0,
      "debug_info" : "Conv_113",
      "pad_fill_mode" : 0,
      "pad_b" : 0,
      "pad_l" : 0,
      "top" : "339",
      "blob_weights" : 235,
      "K" : 128,
      "blob_biases" : 233,
      "name" : "Conv_113",
      "has_batch_norm" : 0,
      "type" : "convolution",
      "n_groups" : 1,
      "pad_t" : 0,
      "has_biases" : 1,
      "C" : 1,
      "bottom" : "338",
      "weights" : {

      },
      "Nx" : 1,
      "pad_mode" : 0,
      "pad_value" : 0,
      "Ny" : 1,
      "n_parallel" : 1
    },
    {
      "pad_r" : 1,
      "fused_relu" : 1,
      "fused_tanh" : 0,
      "debug_info" : "Conv_114",
      "pad_fill_mode" : 0,
      "pad_b" : 1,
      "pad_l" : 1,
      "top" : "341",
      "blob_weights" : 239,
      "K" : 128,
      "blob_biases" : 237,
      "name" : "Conv_114",
      "has_batch_norm" : 0,
      "type" : "convolution",
      "n_groups" : 128,
      "pad_t" : 1,
      "has_biases" : 1,
      "C" : 128,
      "bottom" : "325",
      "weights" : {

      },
      "Nx" : 3,
      "pad_mode" : 0,
      "pad_value" : 0,
      "Ny" : 3,
      "n_parallel" : 1
    },
    {
      "pad_r" : 0,
      "fused_relu" : 0,
      "fused_tanh" : 0,
      "debug_info" : "Conv_116",
      "pad_fill_mode" : 0,
      "pad_b" : 0,
      "pad_l" : 0,
      "top" : "342",
      "blob_weights" : 243,
      "K" : 128,
      "blob_biases" : 241,
      "name" : "Conv_116",
      "has_batch_norm" : 0,
      "type" : "convolution",
      "n_groups" : 1,
      "pad_t" : 0,
      "has_biases" : 1,
      "C" : 4,
      "bottom" : "341",
      "weights" : {

      },
      "Nx" : 1,
      "pad_mode" : 0,
      "pad_value" : 0,
      "Ny" : 1,
      "n_parallel" : 1
    },
    {
      "pad_r" : 0,
      "fused_relu" : 0,
      "fused_tanh" : 0,
      "debug_info" : "Conv_117",
      "pad_fill_mode" : 0,
      "pad_b" : 0,
      "pad_l" : 0,
      "top" : "343",
      "blob_weights" : 247,
      "K" : 128,
      "blob_biases" : 245,
      "name" : "Conv_117",
      "has_batch_norm" : 0,
      "type" : "convolution",
      "n_groups" : 1,
      "pad_t" : 0,
      "has_biases" : 1,
      "C" : 1,
      "bottom" : "341",
      "weights" : {

      },
      "Nx" : 1,
      "pad_mode" : 0,
      "pad_value" : 0,
      "Ny" : 1,
      "n_parallel" : 1
    },
    {
      "pad_r" : 1,
      "fused_relu" : 1,
      "fused_tanh" : 0,
      "debug_info" : "Conv_118",
      "pad_fill_mode" : 0,
      "pad_b" : 1,
      "pad_l" : 1,
      "top" : "345",
      "blob_weights" : 251,
      "K" : 128,
      "blob_biases" : 249,
      "name" : "Conv_118",
      "has_batch_norm" : 0,
      "type" : "convolution",
      "n_groups" : 128,
      "pad_t" : 1,
      "has_biases" : 1,
      "C" : 128,
      "bottom" : "329",
      "weights" : {

      },
      "Nx" : 3,
      "pad_mode" : 0,
      "pad_value" : 0,
      "Ny" : 3,
      "n_parallel" : 1
    },
    {
      "pad_r" : 0,
      "fused_relu" : 0,
      "fused_tanh" : 0,
      "debug_info" : "Conv_120",
      "pad_fill_mode" : 0,
      "pad_b" : 0,
      "pad_l" : 0,
      "top" : "346",
      "blob_weights" : 255,
      "K" : 128,
      "blob_biases" : 253,
      "name" : "Conv_120",
      "has_batch_norm" : 0,
      "type" : "convolution",
      "n_groups" : 1,
      "pad_t" : 0,
      "has_biases" : 1,
      "C" : 1,
      "bottom" : "345",
      "weights" : {

      },
      "Nx" : 1,
      "pad_mode" : 0,
      "pad_value" : 0,
      "Ny" : 1,
      "n_parallel" : 1
    },
    {
      "pad_r" : 1,
      "fused_relu" : 1,
      "fused_tanh" : 0,
      "debug_info" : "Conv_121",
      "pad_fill_mode" : 0,
      "pad_b" : 1,
      "pad_l" : 1,
      "top" : "348",
      "blob_weights" : 259,
      "K" : 128,
      "blob_biases" : 257,
      "name" : "Conv_121",
      "has_batch_norm" : 0,
      "type" : "convolution",
      "n_groups" : 128,
      "pad_t" : 1,
      "has_biases" : 1,
      "C" : 128,
      "bottom" : "329",
      "weights" : {

      },
      "Nx" : 3,
      "pad_mode" : 0,
      "pad_value" : 0,
      "Ny" : 3,
      "n_parallel" : 1
    },
    {
      "pad_r" : 0,
      "fused_relu" : 0,
      "fused_tanh" : 0,
      "debug_info" : "Conv_123",
      "pad_fill_mode" : 0,
      "pad_b" : 0,
      "pad_l" : 0,
      "top" : "349",
      "blob_weights" : 263,
      "K" : 128,
      "blob_biases" : 261,
      "name" : "Conv_123",
      "has_batch_norm" : 0,
      "type" : "convolution",
      "n_groups" : 1,
      "pad_t" : 0,
      "has_biases" : 1,
      "C" : 4,
      "bottom" : "348",
      "weights" : {

      },
      "Nx" : 1,
      "pad_mode" : 0,
      "pad_value" : 0,
      "Ny" : 1,
      "n_parallel" : 1
    },
    {
      "pad_r" : 0,
      "fused_relu" : 0,
      "fused_tanh" : 0,
      "debug_info" : "Conv_124",
      "pad_fill_mode" : 0,
      "pad_b" : 0,
      "pad_l" : 0,
      "top" : "350",
      "blob_weights" : 267,
      "K" : 128,
      "blob_biases" : 265,
      "name" : "Conv_124",
      "has_batch_norm" : 0,
      "type" : "convolution",
      "n_groups" : 1,
      "pad_t" : 0,
      "has_biases" : 1,
      "C" : 1,
      "bottom" : "348",
      "weights" : {

      },
      "Nx" : 1,
      "pad_mode" : 0,
      "pad_value" : 0,
      "Ny" : 1,
      "n_parallel" : 1
    },
    {
      "axis_h" : 0,
      "axis_w" : 2,
      "bottom" : "335",
      "axis_k" : 1,
      "axis_n" : 3,
      "axis_seq" : 4,
      "weights" : {

      },
      "debug_info" : "Transpose_125",
      "top" : "351",
      "type" : "transpose",
      "name" : "Transpose_125"
    },
    {
      "name" : "Reshape_127",
      "weights" : {

      },
      "dst_w" : 1,
      "version" : 1,
      "dst_n" : 0,
      "type" : "reshape",
      "dst_h" : 4,
      "mode" : 0,
      "bottom" : "351",
      "debug_info" : "Reshape_127",
      "dst_seq" : 1,
      "dst_k" : -1,
      "top" : "353"
    },
    {
      "axis_h" : 0,
      "axis_w" : 2,
      "bottom" : "342",
      "axis_k" : 1,
      "axis_n" : 3,
      "axis_seq" : 4,
      "weights" : {

      },
      "debug_info" : "Transpose_128",
      "top" : "354",
      "type" : "transpose",
      "name" : "Transpose_128"
    },
    {
      "name" : "Reshape_130",
      "weights" : {

      },
      "dst_w" : 1,
      "version" : 1,
      "dst_n" : 0,
      "type" : "reshape",
      "dst_h" : 4,
      "mode" : 0,
      "bottom" : "354",
      "debug_info" : "Reshape_130",
      "dst_seq" : 1,
      "dst_k" : -1,
      "top" : "356"
    },
    {
      "axis_h" : 0,
      "axis_w" : 2,
      "bottom" : "349",
      "axis_k" : 1,
      "axis_n" : 3,
      "axis_seq" : 4,
      "weights" : {

      },
      "debug_info" : "Transpose_131",
      "top" : "357",
      "type" : "transpose",
      "name" : "Transpose_131"
    },
    {
      "name" : "Reshape_133",
      "weights" : {

      },
      "dst_w" : 1,
      "version" : 1,
      "dst_n" : 0,
      "type" : "reshape",
      "dst_h" : 4,
      "mode" : 0,
      "bottom" : "357",
      "debug_info" : "Reshape_133",
      "dst_seq" : 1,
      "dst_k" : -1,
      "top" : "359"
    },
    {
      "bottom" : "353,356,359",
      "weights" : {

      },
      "debug_info" : "Concat_134",
      "top" : "bboxes",
      "type" : "concat",
      "name" : "Concat_134",
      "attributes" : {
        "is_output" : 1
      }
    },
    {
      "bottom" : "336",
      "weights" : {

      },
      "mode" : 0,
      "nd_axis" : 0,
      "debug_info" : "Reshape_136",
      "top" : "362",
      "type" : "flatten",
      "name" : "Reshape_136"
    },
    {
      "bottom" : "343",
      "weights" : {

      },
      "mode" : 0,
      "nd_axis" : 0,
      "debug_info" : "Reshape_138",
      "top" : "364",
      "type" : "flatten",
      "name" : "Reshape_138"
    },
    {
      "bottom" : "350",
      "weights" : {

      },
      "mode" : 0,
      "nd_axis" : 0,
      "debug_info" : "Reshape_140",
      "top" : "366",
      "type" : "flatten",
      "name" : "Reshape_140"
    },
    {
      "bottom" : "362,364,366",
      "weights" : {

      },
      "debug_info" : "Concat_141",
      "top" : "objectness",
      "type" : "concat",
      "name" : "Concat_141",
      "attributes" : {
        "is_output" : 1
      }
    },
    {
      "bottom" : "332",
      "weights" : {

      },
      "mode" : 0,
      "nd_axis" : 0,
      "debug_info" : "Reshape_143",
      "top" : "369",
      "type" : "flatten",
      "name" : "Reshape_143"
    },
    {
      "bottom" : "339",
      "weights" : {

      },
      "mode" : 0,
      "nd_axis" : 0,
      "debug_info" : "Reshape_145",
      "top" : "371",
      "type" : "flatten",
      "name" : "Reshape_145"
    },
    {
      "bottom" : "346",
      "weights" : {

      },
      "mode" : 0,
      "nd_axis" : 0,
      "debug_info" : "Reshape_147",
      "top" : "373",
      "type" : "flatten",
      "name" : "Reshape_147"
    },
    {
      "bottom" : "369,371,373",
      "weights" : {

      },
      "debug_info" : "Concat_148",
      "top" : "scores",
      "type" : "concat",
      "name" : "Concat_148",
      "attributes" : {
        "is_output" : 1
      }
    }
  ],
  "transform_params" : {
    "inputs" : {
      "bias_a" : 0,
      "bias_g" : 0,
      "bias_r" : 0,
      "bias_b" : 0,
      "center_mean" : 0,
      "is_network_bgr" : 1,
      "scale" : 1
    }
  },
  "storage" : "model.espresso.weights",
  "metadata_in_weights" : [

  ],
  "properties" : {

  },
  "analyses" : {

  },
  "format_version" : 200
}